agent_code/Less_Ultimate_agent/my-saved-model.pt (torch, 52239 bytes, 6 tensors)

conv1.0.weight f4 [16, 6, 3, 3]
00000000: 8edc 0dbe 73fe 933e 4e31 c1be 7a52 b5be
00000010: bad4 023f 1629 4b3d 9764 163e 3930 c23e
00000020: d145 79be efc2 363e 9fa5 1e40 2346 d33e
00000030: 7935 d63d 7aa2 7540 d50a e43e db0c 2b3f
00000040: 686e 6840 4cef 4c3f 27a0 cb3e 8694 483f
00000050: 3bcc 5abe d23c 45bf bc64 5b3f b2f9 183f
00000060: 828a 203f 58ef 123f 072a f7be 00b4 8ebc
00000070: edf2 ccbd d513 933d 49a1 443e 1933 c8bd
00000080: f74d eebd 4dea e8bd 9661 d2bd 5a8c 983d
00000090: a61f cf3c e098 bf3c b5ff e23d 7285 04bd
000000a0: b059 933d 7a58 193d 425c ccbb 2e0f 8bbd
000000b0: a530 85bc 8113 80bd ccc6 2dbd 7a8d a9be
000000c0: f653 d33d c007 8abe 4e8f aebc 7d4c dd3b
000000d0: 33bf e7be 622d 2e3e 2d04 043f ca59 6eba
000000e0: a92c dd3e 89f2 4f3d 39ed 383e 9b3f 013e
000000f0: 2146 983e d36f 6cbd 19cc 00bd 2546 0f40
00000100: b7cf a2bd 98cb 1440 8456 df3f afd0 b2be
00000110: 5b44 a1bf a3e8 1540 078e e4bf 1123 1040
00000120: 9b31 2d3f a013 a2bd 632d 6c3f a308 f03e
00000130: 6a1a 23bf ab4f da3e 97f5 4c3f ee6b b7be
00000140: 9d82 673f 570f 903d 2a63 fe3e 1cf6 633e
00000150: 727c 213e dc81 01be b748 0e3e a6dc 3f3d
00000160: 2b16 113f f76d 193e 3e3a fdbc 0f31 3dbe
00000170: 53b0 14bc 161e c13d 79a9 193e fa4d 4c3e
00000180: eba0 f9bd 855d b23c 6d1b 153e 3319 8f3f
00000190: f24f e7bd 9db5 7a3f 8e9d 0f3e d300 1abf
000001a0: b4a2 ac3e e5b8 333f c555 743e 24a9 203f
000001b0: 8892 723e fd74 363f a3c7 a23e d550 913e
000001c0: 7a8b 773e 234a 9a3e 41f9 763e 0c28 a33e
000001d0: db7b 1a3e c63d 9e3f bc00 af3f 365d b13f
000001e0: ff48 623f 3d5b b5bf 4fa2 463f cbb6 ad3f
000001f0: 4aa3 343f 0e27 b33f b1a6 20bd 3ba8 b73f
00000200: 40b8 35be bbcc c43f 0200 11c0 dc86 be3f
00000210: 4547 233c c328 5a3f a498 f33d 37ae 913d
00000220: 792f 63be 3483 413d ecbd 13be 7fbf 753e
00000230: 0474 0abe dbd7 0a3d 72ca 30be dddf 8e3c
00000240: ecca d53d 4096 763d 97c5 7f3c 8460 1e3e
00000250: 1b3b 8bbe 2eff b43d ee15 84be ccee 09bd
00000260: 8038 953d d145 73be f95e b33e 4d07 4fbe
00000270: 594e babe ee92 363e 4a68 ffbe cc8d 39bf
00000280: e9e7 2e3e 58bf 62bf 2fd5 813e 9bc6 513e
00000290: 623b d63d 1202 eabd 98a9 31be 2d98 6c3d
000002a0: c88e 94be b9f5 c1bb f542 cc3d ddf5 ce3f
000002b0: ace5 8840 a7c0 ad40 75a5 5f3f d7b5 5f40
000002c0: 33a5 4340 8f0d d83f efcc 6740 fad1 3040
000002d0: 484b dc3e d67c 5b3e 7a56 ad3c a3e4 96be
000002e0: c3e8 4cbe 9d74 b03d 8219 f2bd 9896 5e3e
000002f0: be7c 7e3d a0fe b03b 372e 2dbd 363b 18bd
00000300: ac39 083e 197e 6ebd acf5 c3bd e84c e6bd
00000310: f65a 8cbc a594 49bc d698 a43d a5c5 113e
00000320: 40b7 0a3e ae67 103e 8958 483e 73d0 e0bd
00000330: dfb9 50bd c6e9 5a3d f52a 80bd 63f1 933e
00000340: 1823 e3bd 17c9 89be 63b4 89be b787 7fbd
00000350: dbcb 09bd f287 ab3e f3c9 b43d c2ed 89be
00000360: ba5a e23d b892 3e3e 11ba cf3c bbee 96bd
00000370: 0e8b ffbe cedb 983e 8737 f5bd 0034 78bd
00000380: 83fb c83d 3326 18bd 47a2 66bf df78 36c0
00000390: 050d 39c0 e3c6 7abf 77df 97bf 5167 ac3e
000003a0: 5bc6 48bf c04c a2bf aaa6 d43e 3936 af3f
000003b0: ac3d f63d 582c 933e c316 0fc0 337e 933f
000003c0: 9915 c93e 66b3 4e3f 35b4 d33e 76dd 953d
000003d0: 1da5 0dbe ab78 74bd 70ac 25be cf3b 3f3f
000003e0: 0bbe 82be c7bc c9bd 3043 4bbe bfb9 be3d
000003f0: aa80 193e 8a45 db3d 4571 fe3d d8b4 a23c
-0.13853666 0.28905067 -0.3773293 -0.35414487 0.51105845 0.04959973 0.1468681 0.37927416
-0.24343039 0.17847799 2.4788587 0.41264448 0.10459418 3.8380418 0.44539514 0.6681649
3.6317387 0.8005264 0.39770624 0.7835163 -0.2136697 -0.7704593 0.85700583 0.59756005
0.62711346 0.5739646 -0.48274252 -0.017419815 -0.10007272 0.07181517 0.1920215 -0.09775371
-0.11635964 -0.11372814 -0.10272519 0.07448645 0.025283646 0.023388326 0.110839285 -0.032353826
0.07194841 0.037437893 -0.006236584 -0.06790005 -0.016258547 -0.0625372 -0.042425916 -0.3311575
0.10318749 -0.26959038 -0.021308567 0.006753503 -0.4526306 0.170095 0.5156887 -0.0009092359
0.43198135 0.05076841 0.18059243 0.1262192 0.29741004 -0.05772383 -0.031444643 2.2386563
-0.07949775 2.3249264 1.7448277 -0.34924838 -1.2598985 2.342324 -1.7855843 2.2521403
0.67653817 -0.079138994 0.92256755 0.4688159 -0.6371218 0.42638907 0.8006224 -0.3582453
0.90433675 0.07034176 0.4968503 0.22261852 0.15770128 -0.12647194 0.13894926 0.046841286
0.5667445 0.14983355 -0.030911561 -0.18475746 -0.009075242 0.094295666 0.15006055 0.1995162
-0.12188896 0.02177311 0.14561243 1.1179565 -0.11294545 0.9793337 0.14024946 -0.6015751
0.33717883 0.70204 0.23860843 0.6275809 0.2368871 0.7127226 0.31792936 0.28381982
0.241743 0.30134687 0.2411852 0.3186649 0.1508631 1.2362602 1.3672099 1.3856571
0.88392633 -1.4168469 0.77591413 1.3571409 0.7056166 1.3996294 -0.03922147 1.4348215
-0.17746067 1.5374979 -2.2656255 1.4884906 0.009965722 0.8521845 0.11894348 0.07113307
-0.22186078 0.047244266 -0.14427918 0.23998831 -0.13520819 0.033897262 -0.17264727 0.01744073
0.10439095 0.060201883 0.015611074 0.15466505 -0.2719353 0.08837734 -0.2579798 -0.033675
0.07286167 -0.23757102 0.35033396 -0.20217629 -0.363879 0.17829487 -0.49884254 -0.7248199
0.17080654 -0.8857322 0.2535796 0.20485918 0.10460545 -0.11426176 -0.17349851 0.057762314
-0.29015183 -0.005919185 0.099737085 1.6168782 4.278036 5.429767 0.8736184 3.4954736
3.056958 1.6879138 3.6218832 2.762816 0.43026185 0.2143434 0.0211594 -0.2947131
-0.20010667 0.08615992 -0.118212715 0.21737134 0.062130682 0.0054014474 -0.042280402 -0.037165843
0.1330325 -0.058225725 -0.095683426 -0.112451375 -0.017133217 -0.012303506 0.08036964 0.14235552
0.13546467 0.1410205 0.19565023 -0.109772585 -0.05095851 0.0534456 -0.062581934 0.288951
-0.11090678 -0.26911232 -0.26895437 -0.062385287 -0.033641677 0.33502156 0.08827581 -0.26939207
0.11052461 0.18610656 0.025357278 -0.07369753 -0.49910778 0.29855198 -0.119734816 -0.060596466
0.09813597 -0.037145805 -0.90091366 -2.8511274 -2.8914196 -0.9795973 -1.1865071 0.33672574
-0.78427666 -1.2679672 0.41533405 1.3688422 0.12023482 0.2874477 -2.2357643 1.1522888
0.3927429 0.8074249 0.41348425 0.07317631 -0.13832517 -0.05968539 -0.16179061 0.74700636
-0.25535616 -0.098504595 -0.19849849 0.09312772 0.14990488 0.10706623 0.12423948 0.019861624

conv1.0.bias f4 [16]
00000000: 2c48 d2be 9361 18bf 8c60 9dbf c881 a4be
00000010: 3170 7fbf 8698 4a3e 05bc 023f ea04 aebf
00000020: 7330 4abf d141 55be 9098 3a3f c381 01bf
00000030: 3f11 87be dd72 4dbf 3ce4 8ebf c0ca ed3e
-0.41070688 -0.59523886 -1.2295089 -0.32130265 -0.99780566 0.19784746 0.51068145 -1.359525
-0.7898018 -0.20825888 0.7288904 -0.50588626 -0.26380345 -0.8025339 -1.1163402 0.46443748

conv2.0.weight f4 [32, 16, 3, 3]
00000000: 72f0 d03e 8077 92bc 6d15 383e 6a74 b43e
00000010: fded 97be d0c8 00be 6895 b03e e73f ec3e
00000020: 04ae 643d 8670 da3e c84d ae3e c6fc 18bf
00000030: dc24 98be b5c7 643e da7c 513c 0c43 1dbe
00000040: f0d3 03bf 6a28 80be 2596 34be 0f47 f33e
00000050: 611e a8bc 2e05 183f 6de7 f43e 58ca 12bf
00000060: 959f 353d e3ec 1fbc 562f 3cbf 7b96 bc3d
00000070: c7c9 08be 3491 963d a57f 243e 45e3 6b3e
00000080: a294 093f 09d6 a43e 9337 963e 94d1 c83e
00000090: 03d8 50bf 0b42 9e3d be4d 7ebe 4392 8bbe
000000a0: ce80 073d 616e 823e a39c 2bbf a0ab dfbe
000000b0: b915 063e 14f4 6f3c 78d2 79be ba11 f43d
000000c0: a3ca a1be a10e fabe 1ac8 023f 85a1 523e
000000d0: 4e95 8cbf 4993 8f3e 294a 8a3c 9865 28be
000000e0: 1180 33bd a84e 37bf d738 053f 5b56 22bf
000000f0: 0c81 51be 564b 143c cb3b 513d af5d 543f
00000100: 4c23 91be 87d8 f9be 52e0 3c3f 9d02 b1be
00000110: 2b3e c4be 9840 943e 9f74 2abe caed c4bd
00000120: 7863 bd3d bc5f ca3e da2b d7be c97d 213e
00000130: 87de ec3e 9a4e 93bf 868a 1b3f 9547 173e
00000140: cba8 17bf a810 263e 0393 4fbe 0038 e3be
00000150: 3f40 9e3e a87b 44bf 6b57 a6be 75c7 b83e
00000160: 48d4 82be fa3b 5abf 6fcf 2e3e a427 8dbe
00000170: 8653 353d 8b42 89be 2104 d83e b029 ea3d
00000180: aa6b 84be e695 febd 30d0 27be b022 023e
00000190: faf9 1a3d e99d eebe cbf9 fc3e 4896 fb3d
000001a0: 94ff e33d 006b fb3d 057f a03b 2a84 04bf
000001b0: 8e45 8ebe 8b1d 023f 56e4 77be 7ad0 06bf
000001c0: 6947 2e3f 797a 363f fb6e 55be 1521 273f
000001d0: e2e0 363f 01f8 1dbf 316b f03e 4c98 9cbe
000001e0: 75c9 3bbd abec 5abe 7b8d ddbe 2e11 173f
000001f0: 36fa 32bf 7909 513e 5236 483f 83e8 053f
00000200: 6844 1fbf a7c5 fc3e 556f e83e effc 143e
00000210: fa6e 743d 3905 533f 6d5e 36bf fa4d 3d3e
00000220: 8819 86be 28a5 d1bd 1f1a a33d b7f1 27be
00000230: 5206 25bf 3973 cc3e 46c4 8b3d adca a1be
00000240: ebc4 b93e 0460 d63e a5e0 063f 1c9c c83e
00000250: 8204 953e c4b6 893d 5c76 713e df55 0d3f
00000260: 10b6 8c3e d0a0 76be beec de3e 077a 943e
00000270: 0bf6 4c3e d893 37bf 5b61 e63e 07c1 5bbf
00000280: 86a8 67be 1850 20be 45c2 2c3e 592e 26be
00000290: 1f4c 2d3f 9848 8fbe bfa7 ed3d 7b94 23be
000002a0: 0c79 4c3f 7bff 3cbd 56fe 543f 64ba 0d3d
000002b0: 15e3 953e 4af9 db3d 7940 733e 5402 c63e
000002c0: d5e8 213e ba35 b03e 8679 163f 7d04 1c3f
000002d0: 1b4e 1abf 0c57 01be 8918 9d3e 2d9d 61be
000002e0: 6dd7 273e 257b 98be 265f dabd 3f1f 483d
000002f0: 61de 1d3f ef95 2abf 0147 c73d 80f8 713e
00000300: 9abf 983e 9900 45be 0d5c 84be 665d 54be
00000310: 1b0b 753b 4445 9a3e 1ac2 8dbe 943c c9be
00000320: 3242 93be 5ed1 dabe 0935 fc3e 5423 e7be
00000330: 2dbd 893e 8864 9f3c 535f a6be 4c31 1e3f
00000340: 9807 a73d f233 d33c 3150 6d3c 68e2 1f3e
00000350: 7517 4dbd 6078 8dbe 3a1c e2be 8a9f a33d
00000360: 1d9b bbbe cc39 3c3e f990 6e3e da4f ecbc
00000370: eb76 f83d 634c 8e3e c235 3cbf f2f1 b3be
00000380: 6fbc 0ebf 9d6b 1d3c b3c4 14be ccfc abbd
00000390: 4cf5 1ebf 5c3e 95be cc15 0dbe 9273 9bbe
000003a0: e376 b4bd d15b 32be 2079 25be dc53 93be
000003b0: acce 62be 4f16 5bbe 973a 863c d058 9f3e
000003c0: 051d 843c c0d7 a03c 0cf6 c7be 4d9b 9cbe
000003d0: 4f73 a2be 23fb a13d 665d 3dbe eb3b 38bf
000003e0: ab4f d43e 904e dfbe e05a 9b3e 9b45 13bf
000003f0: 7038 273e 7cbd f53e 1977 3abd b41c aabe
0.40808445 -0.017879248 0.17976923 0.35245067 -0.29673758 -0.12576604 0.34488988 0.46142504
0.055830017 0.42663974 0.34043717 -0.597607 -0.2971562 0.22341807 0.012786115 -0.15357608
-0.51495266 -0.25030833 -0.176354 0.4751515 -0.020522298 0.59382904 0.47832814 -0.5734
0.044341642 -0.009761068 -0.7350973 0.09208389 -0.13358222 0.07351914 0.16064318 0.23035915
0.5374242 0.32194546 0.29339275 0.39222395 -0.8157961 0.077274404 -0.24834344 -0.27260026
0.033081822 0.25474837 -0.67035884 -0.43685627 0.13094224 0.014645595 -0.24396694 0.119174436
-0.31599912 -0.48839286 0.5108658 0.20569427 -1.0983064 0.28042057 0.016881065 -0.16445005
-0.043823306 -0.71604395 0.52039856 -0.6341302 -0.20459384 0.009051165 0.051082414 0.8295545
-0.28347242 -0.4879801 0.73779786 -0.34572306 -0.3832868 0.2895553 -0.1664605 -0.09615667
0.09247488 0.39526165 -0.42025644 0.1577064 0.46263525 -1.1508362 0.60758245 0.147734
-0.5924193 0.16217291 -0.20270924 -0.44378662 0.3090839 -0.76751184 -0.3248857 0.36089674
-0.25552583 -0.85247767 0.17071317 -0.27569306 0.044269107 -0.2680858 0.4219065 0.114337325
-0.2586339 -0.124309346 -0.16388011 0.12708545 0.037836052 -0.4660485 0.49409327 0.12284523
0.11132732 0.12276268 0.0048979544 -0.51764166 -0.2778744 0.5082633 -0.24208197 -0.5266186
0.68077713 0.7128063 -0.20843117 0.65284854 0.71436894 -0.6170655 0.4695678 -0.30584943
-0.04584642 -0.21379344 -0.43272004 0.5901059 -0.6991304 0.2041377 0.78207886 0.5230791
-0.62213755 0.49369547 0.4539744 0.14549612 0.059676148 0.82429844 -0.7123783 0.18486777
-0.26191354 -0.10236579 0.079639666 -0.164008 -0.6446277 0.39931658 0.068245456 -0.31599942
0.3628305 0.4187013 0.5268653 0.39181602 0.29105002 0.06724313 0.23580307 0.55209154
0.27482653 -0.24084783 0.43539995 0.2899935 0.20015733 -0.71709967 0.4499615 -0.8584141
-0.2262288 -0.15655553 0.16870983 -0.16228618 0.67694277 -0.27985072 0.11604261 -0.1597461
0.798722 -0.046142083 0.83200586 0.034601584 0.29274812 0.107409075 0.23755063 0.3867365
0.15811475 0.3441599 0.5877918 0.6094435 -0.6027543 -0.12630862 0.3068278 -0.22032614
0.16390772 -0.29781452 -0.106626794 0.048857924 0.6166745 -0.6663503 0.0973034 0.23629951
0.2983368 -0.19238509 -0.2585148 -0.20738754 0.0037390653 0.3013097 -0.2768715 -0.3930403
-0.2876144 -0.4273786 0.49259213 -0.4514414 0.26902142 0.019457117 -0.32494602 0.6179397
0.08155745 0.025781605 0.014484451 0.15613711 -0.0500712 -0.276309 -0.4416216 0.07989414
-0.3664178 0.18381423 0.2329749 -0.02884667 0.12132057 0.27792653 -0.7351953 -0.35145527
-0.55756277 0.009608177 -0.1452816 -0.083978266 -0.62093043 -0.2914914 -0.13777846 -0.3036161
-0.08811738 -0.17417838 -0.16159487 -0.28774917 -0.22149152 -0.21395229 0.01638536 0.31122446
0.016127119 0.019634128 -0.39054906 -0.30587235 -0.31728598 0.07909229 -0.1849266 -0.7196643
0.41467032 -0.43614626 0.3034277 -0.57528085 0.16330123 0.47996128 -0.045523737 -0.33225024

conv2.0.bias f4 [32]
00000000: cb91 65be 3005 943d 6c81 333e 5d42 29bf
00000010: 9e3a a6bf 6610 29bf 3677 98be 717e 143e
00000020: e069 18bf 4ecc 253e 121f 893d 034a 10bf
00000030: e8de 14be ebb6 d2be 077c ecbe 00ab 72bf
00000040: f865 38bf 6c72 06be 3e76 0fbf 0823 0fbf
00000050: 6fc7 25be 0c36 1fbf 7902 03bf eb91 1abf
00000060: 0f0a 37bf 00c4 973d 5085 0c3d b6b5 e3be
00000070: 1f45 ffbe b063 b1be 6dd3 d03e e3c9 a6be
-0.22418897 0.07227552 0.1752984 -0.6611689 -1.2986639 -0.6604065 -0.2977845 0.14501359
-0.5953655 0.16191217 0.06695379 -0.5636293 -0.14538157 -0.4115518 -0.46188375 -0.94792175
-0.7203059 -0.13129586 -0.560398 -0.5591283 -0.16189359 -0.62191844 -0.5117565 -0.60378903
-0.71499723 0.07410431 0.034306824 -0.44474572 -0.49857423 -0.34646368 0.40786305 -0.32575902

out.0.weight f4 [6, 1152]
00000000: 346d 9bbe c92e 563e 6404 82be f559 39be
00000010: 014f a1be 2804 11be 0287 eabe 2b59 5bbf
00000020: 8d92 f0be 0fde a2be 2b49 553d 47d3 a1be
00000030: 4741 30bf ecfd 8ebe db17 b2be ae24 68be
00000040: 019a 603d bac2 913d 62d6 303e b15c d63d
00000050: a0c3 963c 6dac 20c0 6b5d 72be 5ccb f3be
00000060: 2ac7 0dbf a532 cebb a0e8 b5be 9a21 913d
00000070: 7d2c 133e 5b80 ad3e e52e cdbe 32ed 42bf
00000080: 0e86 2bbf 6969 cbbb 5caf 253e dced 98be
00000090: 0944 95be e30b c4bd 9476 57bd ef11 a23d
000000a0: 393c a9bd 0f51 0bbf 7cec 86be 90ce 9ebe
000000b0: 1742 263d b53e 18be 71e9 363f cd7c 67be
000000c0: 229e 723d 6f17 583e b509 283e 6537 15be
000000d0: 63b8 05be 1890 debe 3d7f 16bf b709 e3bf
000000e0: 4125 81bf bb60 9abe 600f 463f 0a97 563e
000000f0: d924 9dbe 24b5 dabd 43df 053f 6465 d5be
00000100: 7169 aebe 5dc6 d9be 537a 2ebf 2df6 09bf
00000110: b64e 76be 99c9 cebd 4332 8f3e f8ac 1ebe
00000120: bedb 60bf 9aa4 03bf 92d8 173d 75de 983e
00000130: 9340 d9be 9c53 78bd d6ad 0ebf 991f bebe
00000140: d746 bbbd d74f bd3e c9f0 2ebd 02b8 133d
00000150: 9fdb c3be a1db 00be fd11 dbbe 1828 cebe
00000160: 3872 aabe 0a20 75bf 2492 89be 8ed1 fbbd
00000170: 7001 5fbf b38a 9dbf 7f8f 6cbf b17a 62bf
00000180: b6dd b7be 8920 373d e7e7 52bf 66fc 7bbf
00000190: e762 10bf e116 2bbf 63de 7ebf d194 2abf
000001a0: 0b15 743b bcf9 303e 3bee 973c fc5f bb3e
000001b0: 485d f73d 036b 17be 6712 3a3c 58cd 40be
000001c0: aed7 bd3c f6b5 48bf 3eda c53b 30e1 d83e
000001d0: 5a9e 33bf 7c12 61bf d86a 44bf f0a9 e8be
000001e0: 02fe c3be 649e a8be 4e88 22be 2cbb 65be
000001f0: 14d5 10bd a0ae d5be b368 8d3c a50e 44bf
00000200: 8db3 adbf 3c20 0dbe b4ce 36bd fbdb 52be
00000210: 9b27 d9bd c1d1 003e 9666 48be c046 fabe
00000220: 21c5 c8bd 83f9 54bf a907 3bbf 5276 d1be
00000230: bba4 1cbf 5574 c8bd c6b7 38bf 18c2 c2be
00000240: 0eee 1c3d bba1 3abe edfa b5bd b2a7 f0be
00000250: f0a5 99bc 6f36 dfbe e121 92be 7d38 4fbe
00000260: 2f2c b4be f23f 06bf 748c 10bf db2b f3be
00000270: 5876 973e 2660 3c3e b305 05be 8f3e fbbe
00000280: dc37 02bf dca2 8ebe 87a9 a83e d922 5e3f
00000290: 8827 ed3e 6724 05bf 571b cabf 6a81 0bbf
000002a0: ca1b 20be aa71 c4be 4bff 5c3d ac37 81bf
000002b0: 9639 78be d300 88be 1394 5bbd 6769 e7bd
000002c0: 4877 5ebe 448b d2be 3e9d 04bf 850d ebbe
000002d0: c37b 3b3e 94be ae3e 7f87 1a3e 7601 6dbf
000002e0: 32cb 35bf 838e 13bf aea3 fdbd 73c6 11be
000002f0: 2932 5e3e 3451 ccbe 4236 3ebe 8e5a dfbe
00000300: 5c81 15bf 3075 bfbf 9782 a8bf 7e89 f7be
00000310: d321 363f 2ae7 55be 529a 7d3e 00f1 1fbd
00000320: 4afa 45be ab1c d2be ca37 09bf 1d87 95be
00000330: cf0e 51bd c529 07bf 6cf6 f0bd 1c63 193d
00000340: f982 5bbe cfa5 a6be 658f 9b3c f056 04bf
00000350: 1894 aabe b91f 27bf 09b6 38be 847e cebe
00000360: bfe5 183e a1d2 98be 3cc3 a7bd b70a dfbd
00000370: aec7 9bbd 60f0 8ebe 04f8 c3be 0a54 cabe
00000380: 57e6 8ebe 86b6 9cbd fc53 32be 4c13 5e3d
00000390: 7c4a d5bd d93b 07be b420 9c3c 95a7 a2be
000003a0: d7aa 70be a371 26bf c3ef 4abe d64d 4fbf
000003b0: f1df 4bbe a538 c0be 1486 10be bf24 bcbb
000003c0: 7cf7 cebe da39 17be 5e71 5c3d edec b33d
000003d0: 3e1b 173e c1db 94be 070b 05bf a694 fabe
000003e0: fb07 c5be f17e e8bd b9dd 9bbd cbd9 243c
000003f0: 0480 bfbe 3a3d 8ebd ac97 d5be 1b21 563c
-0.30356753 0.20916285 -0.25393975 -0.18100722 -0.31505588 -0.14161742 -0.45806128 -0.85682935
-0.4698681 -0.31810042 0.05207173 -0.31606504 -0.68849605 -0.27928102 -0.34783825 -0.22670242
0.05483437 0.07117219 0.1726928 0.10466898 0.018403828 -2.510524 -0.23668449 -0.47616088
-0.55382025 -0.0062926584 -0.3552904 0.07086487 0.1437244 0.3388699 -0.4007484 -0.7614318
-0.67001426 -0.006207634 0.16180176 -0.29868972 -0.2915347 -0.0957258 -0.05260332 0.07913577
-0.0826344 -0.5442056 -0.26352298 -0.3101697 0.040590372 -0.14867671 0.71449953 -0.22606201
0.05923284 0.21102689 0.16409953 -0.14571913 -0.13058619 -0.4346931 -0.587879 -1.773734
-1.0089494 -0.30151924 0.7736721 0.20956054 -0.30692175 -0.10679081 0.52293795 -0.41678917
-0.3406482 -0.42534152 -0.681554 -0.5389126 -0.24053463 -0.100970455 0.27968034 -0.1549567
-0.878353 -0.5142304 0.037071772 0.2985722 -0.4243208 -0.06062661 -0.55734 -0.37133482
-0.09144371 0.36974975 -0.0427101 0.036064155 -0.38253495 -0.12583782 -0.4278716 -0.40264964
-0.33290267 -0.9575201 -0.2686931 -0.12295829 -0.8711157 -1.2307953 -0.9240646 -0.8846846
-0.3591134 0.044708762 -0.82385105 -0.98432004 -0.56400913 -0.66831785 -0.99558085 -0.66633326
0.0037243988 0.17282766 0.018546214 0.36596668 0.12078339 -0.14786915 0.0113569265 -0.18828332
0.023174133 -0.7840265 0.0060379794 0.42359304 -0.701635 -0.8791883 -0.7672553 -0.45442152
-0.3827973 -0.32933342 -0.15872309 -0.22434682 -0.035359457 -0.4173479 0.017261839 -0.76584846
-1.357042 -0.13781828 -0.04463072 -0.20591728 -0.10603257 0.12580015 -0.19570383 -0.48882103
-0.09803224 -0.83193225 -0.73058563 -0.40910584 -0.6118886 -0.097878136 -0.72155416 -0.38038707
0.038312964 -0.18225758 -0.08885751 -0.4700294 -0.018755883 -0.43596217 -0.28541473 -0.20236392
-0.3518996 -0.5244132 -0.56464314 -0.47494397 0.29582477 0.18396053 -0.12990455 -0.49071166
-0.50866485 -0.27858627 0.3294184 0.86771923 0.46319222 -0.5200867 -1.5789593 -0.54494345
-0.156356 -0.3836797 0.053954404 -1.0095115 -0.24240717 -0.2656313 -0.05360801 -0.11299401
-0.2172519 -0.41121876 -0.5180243 -0.45908752 0.1830893 0.34129775 0.1509075 -0.92580354
-0.71013176 -0.5763933 -0.12384735 -0.14235859 0.21698822 -0.39905703 -0.18575385 -0.43623775
-0.5840051 -1.4957638 -1.3164853 -0.48347086 0.7114536 -0.20888963 0.247659 -0.039048195
-0.19333759 -0.41037497 -0.5360075 -0.29204646 -0.051039513 -0.5279811 -0.11765751 0.037448034
-0.21436681 -0.32548377 0.018989274 -0.51695156 -0.33316112 -0.6528278 -0.18038191 -0.403309
0.14931391 -0.29848197 -0.08191535 -0.108907156 -0.07606445 -0.27917767 -0.38275158 -0.39517242
-0.2791011 -0.07652001 -0.1741485 0.05421762 -0.104145974 -0.13206424 0.019058563 -0.3176848
-0.2350267 -0.65017146 -0.19818024 -0.80978143 -0.19909646 -0.37543216 -0.14113647 -0.005741685
-0.4042319 -0.14768162 0.053819053 0.087854244 0.14756486 -0.2907391 -0.5196995 -0.48941535
-0.3848265 -0.11352337 -0.076106496 0.0100616915 -0.37402356 -0.06945272 -0.4171728 0.013069416

out.0.bias f4 [6]
00000000: 02b1 cebd c04c 4dbf cb2f 6bbf f176 adbd
00000010: 7c20 22bf 0922 4a3e
-0.10092355 -0.80195236 -0.918698 -0.08469952 -0.6333082 0.19739546
