agent_code/Ultimate_agent/my-saved-model.pt (torch, 52407 bytes, 6 tensors)

conv1.0.weight f4 [16, 6, 3, 3]
00000000: 8edc 0dbe 73fe 933e 4e31 c1be 7a52 b5be
00000010: bad4 023f 1629 4b3d 9764 163e 3930 c23e
00000020: d145 79be 323d 373e 7ead 1e40 3007 d33e
00000030: 403a d53d 5baa 7540 a9cb e33e e4ed 2a3f
00000040: 4b76 6840 b5cf 4c3f a574 cb3e 7f81 483f
00000050: 9328 5abe 5865 45bf df77 5b3f 261c 193f
00000060: 2762 203f fa02 133f 0950 f7be ea0a 91bc
00000070: c488 cdbd a47d 923d c14e 443e ffc4 c8bd
00000080: 63ed eebd e88c e9bd 37f3 d2bd 9cc2 973d
00000090: a61f cf3c e098 bf3c b5ff e23d 7285 04bd
000000a0: b059 933d 7a58 193d 425c ccbb 2e0f 8bbd
000000b0: a530 85bc a550 81bd 8553 30bd 8ddf a9be
000000c0: e2b4 d23d d01d 8abe c7ca b1bc 03f0 d23b
000000d0: 2ea9 e7be dec5 2d3e 2d04 043f ca59 6eba
000000e0: a92c dd3e 89f2 4f3d 39ed 383e 9b3f 013e
000000f0: 2146 983e d36f 6cbd 19cc 00bd 2546 0f40
00000100: b7cf a2bd 98cb 1440 be46 df3f afd0 b2be
00000110: 4035 a1bf a3e8 1540 078e e4bf 1123 1040
00000120: 1244 2d3f d55b a3bd a73e 6c3f ecb7 ef3e
00000130: bb21 23bf 8cfd d93e 79cc 4c3f 0ebc b7be
00000140: 1b5b 673f 570f 903d 2a63 fe3e 1cf6 633e
00000150: baef 213e 0932 01be ffbb 0e3e a6dc 3f3d
00000160: 2b16 113f f76d 193e 3e3a fdbc 0f31 3dbe
00000170: 53b0 14bc 161e c13d 79a9 193e fa4d 4c3e
00000180: eba0 f9bd 855d b23c 6d1b 153e 520e 8f3f
00000190: 3ea8 e7bd a7bc 7a3f 7c46 0f3e dcf5 19bf
000001a0: cbb0 ac3e 21a3 333f 9729 743e 199a 203f
000001b0: 8892 723e fd74 363f a3c7 a23e d550 913e
000001c0: 7a8b 773e 234a 9a3e 41f9 763e 0c28 a33e
000001d0: db7b 1a3e 102e 9e3f bc00 af3f f26c b13f
000001e0: 604f 623f 3d5b b5bf 4fa2 463f cbb6 ad3f
000001f0: bd83 343f 4517 b33f 9276 1fbd 98b1 b73f
00000200: 4b5b 36be f9e0 c43f e007 11c0 5472 be3f
00000210: 1378 1e3c 95ff 593f 1b2f f43d c8f8 923d
00000220: 77d8 62be 1a19 443d ef18 13be ef1c 753e
00000230: 84ce 09be c76b 0d3d 1278 30be 4009 943c
00000240: ecca d53d 4096 763d 97c5 7f3c 8460 1e3e
00000250: 1b3b 8bbe 2eff b43d ee15 84be ccee 09bd
00000260: 8038 953d f871 73be f72f b33e 22db 4ebe
00000270: 6f64 babe 1b35 363e 3752 ffbe d798 39bf
00000280: 168a 2e3e 58bf 62bf 2fd5 813e 9bc6 513e
00000290: 623b d63d 1202 eabd 98a9 31be 2d98 6c3d
000002a0: c88e 94be b9f5 c1bb f542 cc3d 2ce7 ce3f
000002b0: bfe1 8840 74c4 ad40 ea85 5f3f f4ad 5f40
000002c0: 529d 4340 c8fd d73f d0d4 6740 dbd9 3040
000002d0: 6bfa db3e c7da 5a3e 003c a83c 3936 97be
000002e0: a38a 4dbe 402f af3d affc f2bd 3cf6 5d3e
000002f0: 20eb 7b3d 52d2 a73b df10 2fbd 929b 19bd
00000300: 47e1 083e 48a7 6fbd 39a9 c2bd 92d9 e6bd
00000310: f76a 8fbc 2b04 4ebc d698 a43d a5c5 113e
00000320: 40b7 0a3e ae67 103e 8958 483e 73d0 e0bd
00000330: dfb9 50bd c6e9 5a3d f52a 80bd 9e9f 933e
00000340: 6faf e3bd 0fec 89be 91dc 89be 15e0 7cbd
00000350: b3da 0abd 9a35 ab3e d35c b53d d903 8abe
00000360: ba5a e23d b892 3e3e 11ba cf3c bbee 96bd
00000370: 0e8b ffbe cedb 983e 8737 f5bd 0034 78bd
00000380: 83fb c83d 960b 1abd 47a2 66bf df78 36c0
00000390: 050d 39c0 53e6 7abf 77df 97bf 5167 ac3e
000003a0: cbe5 48bf c04c a2bf 57f8 d43e d645 af3f
000003b0: 5aa5 f53d d8ee 923e 5a1b 0fc0 c069 933f
000003c0: 03c4 c83e 7ba0 4e3f 6065 d33e 7a78 963d
000003d0: 4857 0dbe 2742 73bd 604e 26be cf3b 3f3f
000003e0: f995 82be 4202 cbbd 22f6 4abe 6574 bd3d
000003f0: aa80 193e 8a45 db3d 4571 fe3d d8b4 a23c
-0.13853666 0.28905067 -0.3773293 -0.35414487 0.51105845 0.04959973 0.1468681 0.37927416
-0.24343039 0.17894438 2.4793391 0.4121642 0.10411501 3.8385227 0.44491318 0.6676924
3.63222 0.80004436 0.3973743 0.78322595 -0.2130454 -0.77107763 0.85729784 0.59808576
0.6264977 0.57426417 -0.4830325 -0.0177054 -0.100358516 0.0715287 0.19170667 -0.09803199
-0.11666372 -0.11403829 -0.10300296 0.07410166 0.025283646 0.023388326 0.110839285 -0.032353826
0.07194841 0.037437893 -0.006236584 -0.06790005 -0.016258547 -0.0631421 -0.0430484 -0.33178368
0.10288407 -0.2697587 -0.021703137 0.006437303 -0.4524626 0.16970012 0.5156887 -0.0009092359
0.43198135 0.05076841 0.18059243 0.1262192 0.29741004 -0.05772383 -0.031444643 2.2386563
-0.07949775 2.3249264 1.7443464 -0.34924838 -1.2594376 2.342324 -1.7855843 2.2521403
0.6768199 -0.079765 0.922831 0.4682001 -0.63723344 0.42576253 0.799995 -0.35885662
0.9037339 0.07034176 0.4968503 0.22261852 0.15814105 -0.12616743 0.13938902 0.046841286
0.5667445 0.14983355 -0.030911561 -0.18475746 -0.009075242 0.094295666 0.15006055 0.1995162
-0.12188896 0.02177311 0.14561243 1.1176245 -0.113113865 0.9794411 0.13991731 -0.60140777
0.33728632 0.7017079 0.2384399 0.62735134 0.2368871 0.7127226 0.31792936 0.28381982
0.241743 0.30134687 0.2411852 0.3186649 0.1508631 1.2357807 1.3672099 1.3861372
0.88402367 -1.4168469 0.77591413 1.3571409 0.70513517 1.3991476 -0.038931437 1.4351072
-0.17808263 1.5381156 -2.2661057 1.487864 0.009672183 0.8515561 0.11923047 0.071763575
-0.22152887 0.0478755 -0.1436498 0.23936819 -0.13457686 0.034526613 -0.17233303 0.018070817
0.10439095 0.060201883 0.015611074 0.15466505 -0.2719353 0.08837734 -0.2579798 -0.033675
0.07286167 -0.23773944 0.34997532 -0.2020078 -0.3640475 0.17793696 -0.49867412 -0.7249884
0.17044863 -0.8857322 0.2535796 0.20485918 0.10460545 -0.11426176 -0.17349851 0.057762314
-0.29015183 -0.005919185 0.099737085 1.6164298 4.277557 5.430231 0.8731371 3.4949923
3.056477 1.6874323 3.622364 2.7632968 0.4296449 0.2137252 0.020536423 -0.29533556
-0.20072417 0.08553934 -0.11864602 0.21675962 0.06150353 0.0051215077 -0.0427407 -0.03750188
0.13367186 -0.05850914 -0.09504933 -0.11271967 -0.01750706 -0.012574236 0.08036964 0.14235552
0.13546467 0.1410205 0.19565023 -0.109772585 -0.05095851 0.0534456 -0.062581934 0.28832716
-0.11117446 -0.2693791 -0.2692609 -0.06173714 -0.033899974 0.33439332 0.088555954 -0.2695606
0.11052461 0.18610656 0.025357278 -0.07369753 -0.49910778 0.29855198 -0.119734816 -0.060596466
0.09813597 -0.037608705 -0.90091366 -2.8511274 -2.8914196 -0.98007697 -1.1865071 0.33672574
-0.78475636 -1.2679672 0.41595718 1.3693187 0.11994429 0.28697848 -2.2360444 1.1516647
0.39212045 0.80713624 0.4128828 0.07347198 -0.13802826 -0.05938926 -0.16240835 0.74700636
-0.25505045 -0.0991254 -0.19820455 0.09250716 0.14990488 0.10706623 0.12423948 0.019861624

conv1.0.bias f4 [16]
00000000: b322 d2be c68a 18bf 2a75 9dbf 3e5d a4be
00000010: 5283 7fbf 72f5 493e 60d0 023f a419 aebf
00000020: 9243 4abf 6da0 55be bdab 3a3f 9994 01bf
00000030: b1c0 86be 449c 4dbf 49db 8ebf 5c91 ed3e
-0.41042098 -0.5958675 -1.2301381 -0.32102388 -0.99809754 0.19722536 0.51099205 -1.3601575
-0.79009354 -0.20861979 0.729183 -0.5061737 -0.26318887 -0.8031657 -1.116067 0.46399963

conv2.0.weight f4 [32, 16, 3, 3]
00000000: d4c7 d03e 8467 96bc f59d 373e 654e b43e
00000010: 182d 98be 8a56 01be 066d b03e 3904 ec3e
00000020: 0a3e 633d 1268 da3e f40f ae3e 55f6 18bf
00000030: 5261 98be e94e 643e 91cf 4b3c abc5 1cbe
00000040: 6ff3 03bf d375 80be cc13 35be b50c f33e
00000050: 7616 abbc dae5 173f 1ba6 f43e 40a6 12bf
00000060: b2c3 333d 304b 16bc d948 3cbf ade0 bb3d
00000070: 2f4b 09be 078c 953d 9405 243e 1b66 6b3e
00000080: 147e 093f 0d97 a43e 7df9 953e cc19 c93e
00000090: 7df7 50bf c592 9e3d 12a5 7ebe d953 8bbe
000000a0: 3f53 063d f647 823e 2ebc 2bbf 445c dfbe
000000b0: 43c0 053e 3924 683c 6350 7abe b652 f33d
000000c0: 8c09 a2be 8e4d fabe 9dec 023f 162f 533e
000000d0: 06a5 8cbf 04e0 8f3e 9d5d 863c 67b8 28be
000000e0: 17b4 34bd 116e 37bf a261 053f 8a65 22bf
000000f0: 1eff 51be 2d19 0f3c 2f83 523d 9749 543f
00000100: c757 91be 4914 fabe b9cb 3c3f ac34 b1be
00000110: 9d66 c4be 1f0d 943e 04e3 29be b0c0 c5bd
00000120: c2cb bc3d ba38 ca3e 7d63 d7be 0032 213e
00000130: 5f0a ed3e 8b60 93bf 867b 1b3f aafd 163e
00000140: 2e87 17bf cfa6 263e 42f0 4ebe 5ff7 e2be
00000150: 4601 9e3e dc53 44bf 2608 a6be 9388 b83e
00000160: 8d82 82be e14f 5abf 7c6f 2f3e 774d 8dbe
00000170: 6cea 333d f2f0 88be a7de d73e 335e eb3d
00000180: dd91 84be 3831 ffbd 993d 27be 8cc5 023e
00000190: a4f4 1c3d de4f eebe 4f4b fd3e 4c95 fc3d
000001a0: c941 e53d dfaf fc3d ea06 8e3b c897 04bf
000001b0: 8c84 8ebe 3405 023f b44f 78be d5ef 06bf
000001c0: db33 2e3f 81a2 363f 05ed 55be ae45 273f
000001d0: c2ca 363f abd8 1dbf 0136 f03e 5a4a 9cbe
000001e0: fdc0 3dbd 383a 5bbe 68bd ddbe a6f1 163f
000001f0: c80d 33bf 5a6a 513e fa20 483f 53ce 053f
00000200: a65d 1fbf 9092 fc3e 1829 e83e 427b 153e
00000210: a176 723d 67e9 523f e03e 36bf 3504 3d3e
00000220: 96ce 85be b83e d2bd 795f a43d 8644 28be
00000230: f01a 25bf 484d cc3e e70a 8d3d d5f0 a1be
00000240: e300 ba3e ed9e d63e db08 073f 3e4a c83e
00000250: 55c0 943e e587 883d abd8 703e 4c36 0d3f
00000260: fe63 8c3e 1314 77be 1429 df3e 8e3b 943e
00000270: 0e98 4d3e 3475 37bf 49b3 e63e dfe9 5bbf
00000280: 1926 68be f0f3 20be a23d 2d3e a8a5 25be
00000290: b166 2d3f a787 8fbe 9e6c ec3d 7112 24be
000002a0: bd59 4c3f faad 3bbd 55d7 543f 7f95 0f3d
000002b0: d12d 963e c904 dd3d 3ac2 723e 6db6 c53e
000002c0: b35e 213e aef6 af3e 665a 163f 06dc 1b3f
000002d0: c325 1abf 97f7 01be 8c51 9d3e a94f 61be
000002e0: 6623 283e c93c 98be 3f1a dbbd 648f 453d
000002f0: f5cb 1d3f 476d 2abf c141 c83d 8f97 723e
00000300: b590 983e c47e 45be 5336 84be c5bd 54be
00000310: 7f9a 553b 3af3 993e 3171 8dbe 33eb c8be
00000320: 5717 93be a207 dbbe 08e3 fb3e 6c49 e7be
00000330: 156b 893e de49 9a3c 40b1 a6be cd15 1e3f
00000340: 9949 a83d 9013 ce3c 3719 633c 8b84 1f3e
00000350: 9170 4fbd 1da9 8dbe 1d65 e2be 3298 a23d
00000360: d975 bbbe f2a0 3b3e fe41 6e3e aa69 f1bc
00000370: 7c0b f93d c56e 8e3e fc23 3cbf 8733 b4be
00000380: 06aa 0ebf 5736 133c fa67 15be a344 adbd
00000390: c414 1fbf 8319 95be 6ec3 0cbe 6fb2 9bbe
000003a0: 46e1 b3bd f710 32be fe1c 26be dda5 93be
000003b0: d272 63be d0cb 5abe 6cb8 883c 3283 9f3e
000003c0: c20a 7e3c f75f 9c3c 6746 c8be 8579 9cbe
000003d0: 1dc3 a2be 48ba a03d bbff 3dbe c322 38bf
000003e0: 6a75 d43e bd27 dfbe 9299 9b3e d76d 13bf
000003f0: a5da 273e f5e6 f53e feda 38bd 386a aabe
0.40777457 -0.018359907 0.1793135 0.3521606 -0.29721904 -0.12630668 0.34458178 0.46096972
0.055479087 0.42657524 0.33996546 -0.5975087 -0.2976175 0.22295727 0.012439624 -0.1530978
-0.51543325 -0.25089893 -0.17683333 0.47470632 -0.020884734 0.593351 0.47782978 -0.5728493
0.0438878 -0.0091732 -0.73548657 0.09173713 -0.13407587 0.07302099 0.16017753 0.22988169
0.53708005 0.32146493 0.29291907 0.39277494 -0.8162764 0.07742838 -0.24867657 -0.27212408
0.032794233 0.25445527 -0.67084014 -0.4362508 0.13061623 0.014168792 -0.24444728 0.1188101
-0.3164791 -0.48887295 0.51142293 0.2062343 -1.0987861 0.28100598 0.01640206 -0.16476594
-0.04411706 -0.71652323 0.521021 -0.63436186 -0.20507476 0.00873403 0.051394638 0.8292479
-0.2838728 -0.488436 0.73748356 -0.34610498 -0.38359538 0.2891626 -0.16590506 -0.09655893
0.09218551 0.39496404 -0.4206809 0.1574173 0.46296975 -1.1513838 0.60735357 0.14745203
-0.5919064 0.1627457 -0.20208839 -0.44329354 0.30860347 -0.7669046 -0.32428092 0.36041698
-0.25490227 -0.85278136 0.17132372 -0.27598163 0.043924734 -0.26746327 0.42162058 0.114925765
-0.25892535 -0.124605596 -0.16332091 0.1277067 0.038319245 -0.4654531 0.49471518 0.123331636
0.11194188 0.12338232 0.0043343203 -0.517941 -0.278355 0.5078919 -0.24249154 -0.52709705
0.68047875 0.7134171 -0.20891197 0.653407 0.71403134 -0.61658734 0.46916202 -0.30525476
-0.046326626 -0.21408927 -0.43308568 0.58962476 -0.69942904 0.20450726 0.7817532 0.5226795
-0.6225227 0.49330568 0.45343852 0.145978 0.059195165 0.82387394 -0.7118969 0.18458636
-0.26134175 -0.10265869 0.080260225 -0.1643239 -0.6449423 0.3990271 0.06886845 -0.31629053
0.36328802 0.41918126 0.5274789 0.39119142 0.29052988 0.06666545 0.23520152 0.55160975
0.27420038 -0.24128751 0.43586028 0.28951687 0.20077536 -0.7166321 0.4505866 -0.85903734
-0.22670783 -0.15718055 0.16918042 -0.16176474 0.6773482 -0.28033182 0.115441546 -0.1602266
0.7982443 -0.045820214 0.8314107 0.03505468 0.2933183 0.10791928 0.23706904 0.38615742
0.15758781 0.3436789 0.5873169 0.60882604 -0.6021387 -0.12692104 0.30726278 -0.22003044
0.16419753 -0.29733875 -0.106983654 0.04823245 0.6163934 -0.66572994 0.097781666 0.23690628
0.29797903 -0.19286638 -0.25822696 -0.20775516 0.0032593308 0.3006838 -0.2762542 -0.39241943
-0.28728744 -0.4277926 0.4919665 -0.45173204 0.2683951 0.01883405 -0.32557106 0.61752015
0.08217163 0.025155813 0.013860992 0.15577905 -0.05064446 -0.27668086 -0.44217768 0.07939185
-0.36613348 0.18323115 0.23267362 -0.02946933 0.121603936 0.27818885 -0.7349241 -0.35195562
-0.55728185 0.008985124 -0.14590445 -0.08460357 -0.6214106 -0.29121026 -0.13746426 -0.30409572
-0.08783202 -0.17389284 -0.16221997 -0.2883748 -0.22211769 -0.21366811 0.016689502 0.31154782
0.015505495 0.019088728 -0.39116213 -0.30561462 -0.31789485 0.0784803 -0.18554585 -0.7192804
0.4149583 -0.43585005 0.30390602 -0.5758948 0.16392 0.4802777 -0.045130722 -0.33284163

conv2.0.bias f4 [32]
00000000: 9701 65be 48bd 923d a9cf 333e af1a 29bf
00000010: fd43 a6bf edff 28bf 69c8 98be 0adb 133e
00000020: 8992 18bf 9439 253e 63d7 873d 7236 10bf
00000030: ec3a 14be 8c05 d3be 982c ecbe 3683 72bf
00000040: ed8e 38bf ec27 06be 4f9f 0fbf 4036 0fbf
00000050: d47d 25be 830d 1fbf 7cef 02bf 8aa4 1abf
00000060: 6f1b 37bf 7f2c 973d 30fb 093d f98a e3be
00000070: 25f3 febe 3620 b1be 97ad d03e 0778 a6be
-0.22363888 0.07165009 0.17559685 -0.6605634 -1.2989498 -0.6601551 -0.298404 0.14439026
-0.59598595 0.16135246 0.06632879 -0.56333077 -0.14475602 -0.4121517 -0.46127772 -0.9473146
-0.7209309 -0.13101166 -0.5610246 -0.55942154 -0.16161281 -0.6212999 -0.51146674 -0.60407317
-0.71526235 0.07381534 0.033686817 -0.44441965 -0.4979488 -0.34594887 0.4075744 -0.3251345

out.0.weight f4 [6, 1152]
00000000: 346d 9bbe c92e 563e 6404 82be f559 39be
00000010: 014f a1be 2804 11be 29c4 eabe 4d78 5bbf
00000020: 8d92 f0be 01dd a2be 2b49 553d bfca a1be
00000030: 4541 30bf ecfd 8ebe db17 b2be ae24 68be
00000040: 34a1 5e3d cac6 903d 25eb 303e 9960 d53d
00000050: a44e 973c 4eb4 20c0 6edb 72be 840a f4be
00000060: 0ac7 0dbf 0ce0 ddbb 88d4 b5be 9a21 913d
00000070: 1fae 123e 5c41 ad3e c52e cdbe 32ed 42bf
00000080: 1a79 2bbf 6969 cbbb 0f31 253e dced 98be
00000090: 0944 95be e30b c4bd 9476 57bd ef11 a23d
000000a0: 393c a9bd 0f51 0bbf 7cec 86be 90ce 9ebe
000000b0: 1742 263d b53e 18be 71e9 363f cd7c 67be
000000c0: 229e 723d 6f17 583e b509 283e 6537 15be
000000d0: 8e36 06be 1890 debe 3d7f 16bf b709 e3bf
000000e0: 4125 81bf bb60 9abe fdef 453f bf18 563e
000000f0: c124 9dbe 24b5 dabd 89e5 053f 86a4 d5be
00000100: 88a8 aebe 8d05 dabe 4c7a 2ebf 20f6 09bf
00000110: b7cc 76be f9c8 cebd 1bf3 8e3e e425 1fbe
00000120: bedb 60bf 9aa4 03bf 92d8 173d 75de 983e
00000130: 9340 d9be 9c53 78bd d6ad 0ebf 991f bebe
00000140: d746 bbbd d74f bd3e c9f0 2ebd 02b8 133d
00000150: ef19 c4be a1db 00be fd11 dbbe 1067 cebe
00000160: 3872 aabe 913f 75bf 1cd1 89be 0fb7 fbbd
00000170: 7001 5fbf 729a 9dbf 7f8f 6cbf 7f99 62bf
00000180: a81c b8be 81c9 373d e7e7 52bf 66fc 7bbf
00000190: e762 10bf 7436 2bbf dafd 7ebf 028c 2abf
000001a0: 0b15 743b 5b0d 313e 3bee 973c fc5f bb3e
000001b0: 485d f73d 036b 17be 6712 3a3c 58cd 40be
000001c0: aed7 bd3c f6b5 48bf 3eda c53b 30e1 d83e
000001d0: 5a9e 33bf 7c12 61bf d86a 44bf f0a9 e8be
000001e0: d8fb c3be ebdc a8be 1187 22be a09c 65be
000001f0: 14d5 10bd 41ed d5be b368 8d3c a50e 44bf
00000200: 8db3 adbf 2b02 0dbe b2ce 36bd fbdb 52be
00000210: ba21 dabd 9f56 003e 4750 48be c046 fabe
00000220: 1fc5 c8bd fd17 55bf 6025 3bbf fd72 d1be
00000230: 42c4 1cbf 5574 c8bd edb6 38bf 3701 c3be
00000240: 0eee 1c3d bba1 3abe edfa b5bd b2a7 f0be
00000250: f0a5 99bc 6f36 dfbe e121 92be 7d38 4fbe
00000260: 2f2c b4be f23f 06bf 748c 10bf db2b f3be
00000270: 5876 973e 2660 3c3e 36f9 04be 8f3e fbbe
00000280: 9a37 02bf 127f 8ebe 87a9 a83e d927 5e3f
00000290: b2e8 ec3e 4319 05bf 571b cabf 6a81 0bbf
000002a0: ca1b 20be aa71 c4be 6995 5d3d 7547 81bf
000002b0: 2e0b 78be ee3f 88be 1394 5bbd 4568 e7bd
000002c0: 82f5 5ebe 1473 d2be d6bc 04bf 5209 ebbe
000002d0: c37b 3b3e 94be ae3e 7f87 1a3e 7601 6dbf
000002e0: 32cb 35bf 838e 13bf aea3 fdbd 73c6 11be
000002f0: 2932 5e3e 3451 ccbe 4236 3ebe 8e5a dfbe
00000300: 5b81 15bf 3075 bfbf 9782 a8bf 7e89 f7be
00000310: d321 363f 2ae7 55be 28a6 7d3e b9d7 21bd
00000320: c4f1 45be ab1c d2be a431 09bf 1d87 95be
00000330: 0595 50bd 4c49 07bf c7f5 f0bd 4464 193d
00000340: f982 5bbe a7a5 a6be 9bd4 9c3c 5d76 04bf
00000350: 7181 aabe b13e 27bf ab89 38be b0bd cebe
00000360: bfe5 183e a1d2 98be 3cc3 a7bd b70a dfbd
00000370: aec7 9bbd 60f0 8ebe 04f8 c3be 0a54 cabe
00000380: 57e6 8ebe 86b6 9cbd fc53 32be 4c13 5e3d
00000390: 7c4a d5bd d93b 07be b820 9c3c 95a7 a2be
000003a0: ca27 71be a371 26bf c8e0 4abe d442 4fbf
000003b0: 015a 4cbe 1b24 c0be 4d04 11be bbef cbbb
000003c0: 5bdd cebe 65b7 17be 287a 5d3d f3f0 b23d
000003d0: f09c 163e e31a 95be 10ff 04bf 81d2 fabe
000003e0: 1a47 c5be d223 e8bd 75da 9cbd e9f4 1c3c
000003f0: 0480 bfbe 383d 8ebd ac97 d5be 2e21 563c
-0.30356753 0.20916285 -0.25393975 -0.18100722 -0.31505588 -0.14161742 -0.45852783 -0.8573044
-0.4698681 -0.31809238 0.05207173 -0.31599995 -0.68849593 -0.27928102 -0.34783825 -0.22670242
0.054352954 0.07069166 0.172772 0.10418815 0.018470116 -2.511005 -0.23716518 -0.47664273
-0.55381835 -0.0067710932 -0.3551371 0.07086487 0.14324234 0.33838928 -0.40074745 -0.7614318
-0.6698166 -0.006207634 0.16131996 -0.29868972 -0.2915347 -0.0957258 -0.05260332 0.07913577
-0.0826344 -0.5442056 -0.26352298 -0.3101697 0.040590372 -0.14867671 0.71449953 -0.22606201
0.05923284 0.21102689 0.16409953 -0.14571913 -0.13106748 -0.4346931 -0.587879 -1.773734
-1.0089494 -0.30151924 0.7731932 0.20907877 -0.30692104 -0.10679081 0.5230337 -0.41727084
-0.34112954 -0.4258236 -0.6815536 -0.5389118 -0.2410153 -0.10096926 0.2791985 -0.15541798
-0.878353 -0.5142304 0.037071772 0.2985722 -0.4243208 -0.06062661 -0.55734 -0.37133482
-0.09144371 0.36974975 -0.0427101 0.036064155 -0.38301036 -0.12583782 -0.4278716 -0.40313005
-0.33290267 -0.9580012 -0.2691735 -0.12290775 -0.8711157 -1.2312758 -0.9240646 -0.88515466
-0.35959363 0.044869903 -0.82385105 -0.98432004 -0.56400913 -0.66879964 -0.99606097 -0.66619885
0.0037243988 0.17290251 0.018546214 0.36596668 0.12078339 -0.14786915 0.0113569265 -0.18828332
0.023174133 -0.7840265 0.0060379794 0.42359304 -0.701635 -0.8791883 -0.7672553 -0.45442152
-0.3827808 -0.32981047 -0.15871836 -0.22423029 -0.035359457 -0.41782573 0.017261839 -0.76584846
-1.357042 -0.13770358 -0.044630714 -0.20591728 -0.10650964 0.12533043 -0.19561873 -0.48882103
-0.09803223 -0.8323973 -0.73103905 -0.40908042 -0.61236966 -0.097878136 -0.7215412 -0.38086864
0.038312964 -0.18225758 -0.08885751 -0.4700294 -0.018755883 -0.43596217 -0.28541473 -0.20236392
-0.3518996 -0.5244132 -0.56464314 -0.47494397 0.29582477 0.18396053 -0.12985691 -0.49071166
-0.5086609 -0.27831322 0.3294184 0.8677955 0.46271282 -0.5199167 -1.5789593 -0.54494345
-0.156356 -0.3836797 0.054097567 -1.0099932 -0.24223015 -0.26611274 -0.05360801 -0.11299185
-0.21773341 -0.41103423 -0.5185064 -0.45905548 0.1830893 0.34129775 0.1509075 -0.92580354
-0.71013176 -0.5763933 -0.12384735 -0.14235859 0.21698822 -0.39905703 -0.18575385 -0.43623775
-0.58400506 -1.4957638 -1.3164853 -0.48347086 0.7114536 -0.20888963 0.24770415 -0.03951237
-0.19330508 -0.41037497 -0.5359137 -0.29204646 -0.050923366 -0.5284622 -0.11765628 0.037449136
-0.21436681 -0.32548258 0.019144347 -0.5174311 -0.3330188 -0.65330034 -0.18021266 -0.40379095
0.14931391 -0.29848197 -0.08191535 -0.108907156 -0.07606445 -0.27917767 -0.38275158 -0.39517242
-0.2791011 -0.07652001 -0.1741485 0.05421762 -0.104145974 -0.13206424 0.01905857 -0.3176848
-0.23550335 -0.65017146 -0.1981231 -0.80961347 -0.19956209 -0.37527546 -0.14161797 -0.0062236465
-0.40403256 -0.14816053 0.054071575 0.08737364 0.14708304 -0.29122075 -0.51951694 -0.48988727
-0.3853081 -0.11334957 -0.07658855 0.0095798755 -0.37402356 -0.0694527 -0.4171728 0.013069434

out.0.bias f4 [6]
00000000: 11ab cfbd c957 4dbf fe06 6bbf a077 adbd
00000010: 7c20 22bf 0922 4a3e
-0.1014005 -0.80212075 -0.91807544 -0.08470082 -0.6333082 0.19739546
