agent_code/Ultimate_agent/my-saved-model2.pt (torch, 52183 bytes, 6 tensors)

conv1.0.weight f4 [16, 6, 3, 3]
000000 96 a3 7d bd 45 69 d2 3e 61 8d 5e 3e b0 5a 4d be
       -0.061923586 0.4109594 0.2173362 -0.20054126
000010 85 59 8b 3e ba ac 9a be 51 08 4c bd 7b fd ab be
       0.27216735 -0.30209905 -0.04981262 -0.33591828
000020 f7 d1 63 3e 36 03 ce 3e e0 1a 26 bf a3 85 c6 be
       0.22248064 0.40236825 -0.6488476 -0.38773832
000030 61 2b c3 bf dd fa b6 bf b9 07 58 c0 9a 7f 1c 3f
       -1.5247613 -1.4295307 -3.3754714 0.61132205
000040 d4 5f 03 bf fc 55 c9 be 91 ac 54 3c 25 97 88 3d
       -0.513181 -0.39323413 0.012980596 0.066694535
000050 e4 1e 76 3e 01 31 a5 bd e7 74 08 3f 3e d7 0f bf
       0.24035221 -0.080659874 0.5330338 -0.5618781
000060 75 38 63 bd d5 4d 42 3d f1 86 0b 3f c8 ad 82 bd
       -0.055473763 0.047437508 0.5450278 -0.063808024
000070 18 49 4f 3c 7c d5 49 3d 3b e4 2a 3e d1 06 a9 bc
       0.012651704 0.04927586 0.16688626 -0.020633133
000080 61 ab 45 3e 97 46 a8 bd ce 2d ed 3d 16 ce 97 3c
       0.19303657 -0.08216589 0.11581002 0.018530887
000090 96 31 c2 3c 6e 57 59 3d 44 c4 91 3d 9d d3 f9 3b
       0.023705285 0.053061895 0.07117513 0.007624103
0000a0 0f fb 66 bc 35 c5 94 3d 96 74 f7 ba 44 a3 c9 bd
       -0.014097943 0.07264177 -0.001887935 -0.098455936
0000b0 46 2b a6 3d a1 a6 c3 bd 8b 57 02 3e bf 66 c1 be
       0.081137225 -0.09553266 0.12728707 -0.37773702
0000c0 30 22 32 bb 6d 51 c5 bd 05 66 c4 3d 6f 35 9c be
       -0.0027181022 -0.09634671 0.09589771 -0.30509517
0000d0 a2 67 1c 3e 9b 70 a5 bd 4e 0b 1e bf a3 ca 24 3e
       0.15273908 -0.080781184 -0.61736 0.16092925
0000e0 2b e9 63 bf 53 36 bb be 93 ed a3 be a9 53 0a 3f
       -0.8902766 -0.36564884 -0.32017192 0.54033905
0000f0 aa f5 1f be c5 d3 dd 3e 64 a7 42 bf da 5d 59 be
       -0.15621057 0.4332563 -0.7603667 -0.21227208
000100 26 d6 96 3f 0a 07 a5 bf a3 33 91 3f eb 11 de 3f
       1.1784103 -1.2892773 1.1343883 1.7349218
000110 22 f3 ea 3f 9d fa fa 3e b4 6a b2 3f 77 c0 74 be
       1.8355448 0.49019328 1.3938813 -0.23901545
000120 76 29 e7 bd 77 b9 4b 3e ca bb 60 be 9f c2 47 3c
       -0.11287205 0.19894968 -0.21946636 0.012192397
000130 2b 78 52 bc a1 2e 83 3d 65 93 11 3e 82 f8 1d bb
       -0.012846033 0.06405378 0.14216383 -0.002410442
000140 bf 46 51 3c cb 57 76 bd b5 30 29 ba 0f e7 ff 3c
       0.012773215 -0.06014232 -0.00064540963 0.031238107
000150 11 8d d6 bc 85 e9 31 bd 63 0f d0 bc 6e 35 18 3d
       -0.026190313 -0.043435592 -0.025397962 0.03716033
000160 c6 f9 37 bb f0 16 e4 39 cf 4c aa 3c 5d a4 99 ba
       -0.002807246 0.0004350464 0.020788578 -0.0011721958
000170 98 50 55 bc 14 6a d9 3b 33 69 6b bd bb ab 02 bd
       -0.013019703 0.00663496 -0.057473373 -0.031902056
000180 0c 53 8e 3d c9 71 d6 3c 32 8e 3f bc 03 a2 97 3e
       0.06949434 0.026177304 -0.011691617 0.29615793
000190 8f 41 8e 3d 8c d2 45 3e c3 a9 6d be d9 cf 21 3e
       0.06946098 0.19318599 -0.2320929 0.15801944
0001a0 19 9e 7b bd 99 c3 0f 3e a4 49 63 bd 36 18 88 3d
       -0.06143007 0.14039458 -0.05549015 0.06645243
0001b0 d6 ea 36 bd 74 71 07 bf 46 cb 92 3e 36 ec 49 bf
       -0.04465755 -0.5290749 0.2867071 -0.78876054
0001c0 69 73 51 be ca d1 4f bf 85 97 e0 bd 2a 1b e1 be
       -0.20454182 -0.8117949 -0.109664 -0.43966037
0001d0 4a 95 c8 bd e5 11 1e 3f bd 7b e8 be c3 29 4d 3f
       -0.097941 0.61746055 -0.45406905 0.8014185
0001e0 05 a9 96 bf eb 5f 02 c0 79 87 a1 bf 45 31 8b be
       -1.1770331 -2.0371044 -1.2619468 -0.27186027
0001f0 c9 94 f5 be 97 98 2e be 9f 1b a5 3d 5f 59 88 3e
       -0.47965077 -0.17050396 0.08061909 0.26630685
000200 43 d1 3b bd b3 75 bb 3d dc 95 5f bf 4b e0 25 be
       -0.045853864 0.09153309 -0.8733804 -0.16198842
000210 e4 8a f3 bd c8 58 2e be 55 97 58 be 60 32 8b 3c
       -0.11891726 -0.17026055 -0.21151479 0.016991794
000220 49 35 8b bd 6b 1c 52 3c f3 ab 04 be 74 37 14 3e
       -0.06797273 0.012824158 -0.12956218 0.14474279
000230 a5 73 be 3c 86 98 1c bc 09 cf 8e bd dd f0 55 3d
       0.023248503 -0.009557849 -0.069730826 0.05223166
000240 6b a1 04 be 66 6c 38 bb 08 d3 50 3d d5 db 50 3b
       -0.12952201 -0.0028140782 0.050982505 0.0031869311
000250 0f 42 05 3d 6a 2b 87 3d fe b7 b6 3d 07 f0 38 3e
       0.0325337 0.066000775 0.089218125 0.18060313
000260 64 1c 94 3d cb b0 b7 bd 38 38 62 3e 73 47 2f 3e
       0.072319776 -0.089692675 0.22091758 0.171171
000270 b3 f8 44 3e 37 ff 81 3e 8f a7 15 3f 9a aa 28 3d
       0.19235496 0.25390026 0.584588 0.041178323
000280 57 61 03 3e 3c e0 9d 3e 40 91 d8 3e b7 98 16 be
       0.12830101 0.3083514 0.42298317 -0.14706694
000290 1a d8 46 3e 54 43 8c be 77 64 dc 3e 79 db 93 bd
       0.19418374 -0.27395117 0.430454 -0.072195955
0002a0 66 64 00 3f 66 a6 3c be 2c 57 98 3e 33 ca a5 bf
       0.50153196 -0.18422851 0.29754007 -1.2952331
0002b0 e4 80 ad bf 8b 8c 2f bf 36 5c 16 3e 91 9a a8 bf
       -1.3554959 -0.68573827 0.14683613 -1.317217
0002c0 84 08 11 3e f2 30 3f bf 26 19 d1 bf d9 84 53 bf
       0.14163405 -0.7468406 -1.63358 -0.82624584
0002d0 57 0c 06 3e 6f 56 18 3e cc 66 c0 bd f8 e0 d9 bd
       0.13090645 0.14876722 -0.09394607 -0.106386125
0002e0 0b 4e 9a 3e 2b 2d 88 bd e6 d7 17 3f af d3 29 bf
       0.30137667 -0.0664924 0.5931381 -0.6633863
0002f0 f9 92 5b 3e 9d be 8a bd 5a d3 8d 3d b5 e1 23 bd
       0.21442784 -0.06774638 0.06925078 -0.040010173
000300 ef 74 00 3c ca c9 a4 bd 20 dc 53 3b 65 04 17 bd
       0.007840379 -0.08046301 0.003232725 -0.036869425
000310 23 4f 5c 3e ab 42 3a 3d 80 59 f0 bd 75 57 5c bc
       0.21514563 0.045473736 -0.11735821 -0.013448586
000320 9b f9 cf bc d1 d2 db bc f5 62 b0 bd 54 02 a4 bd
       -0.025387576 -0.026833924 -0.086126246 -0.080082566
000330 8a 1b 3a 3c eb 80 80 bd 84 8c 02 be c4 25 c7 bd
       0.011359105 -0.06274589 -0.12748915 -0.09724
000340 4f b7 fd 3d e8 ba 3c be 39 89 d4 be 68 81 23 be
       0.12388479 -0.18430674 -0.41510943 -0.15967333
000350 47 10 04 be 59 a1 d2 be 34 9e ba 3d d3 5c 3e be
       -0.12896834 -0.41138723 0.09112206 -0.18590097
000360 82 ce 17 3e e4 9a b6 3e 8a f1 4c 3c 84 fb 4a bc
       0.1482487 0.35665047 0.012508759 -0.012389068
000370 5e 09 98 bd 30 c1 31 bd 10 b5 09 bd 7a c1 47 bd
       -0.07423662 -0.04339713 -0.03361994 -0.048768498
000380 22 1c 11 bd 57 8b bb be 78 0a 5f bf 82 ea 91 3e
       -0.03542722 -0.36629745 -0.8712535 0.28499228
000390 0a e1 88 bf 59 a4 80 bf 76 96 0f 3e db 77 b0 be
       -1.0693676 -1.0050155 0.1402224 -0.34466442
0003a0 66 2d a8 3e fd 6d a2 3f df 07 48 be 4b da dd 3e
       0.32847136 1.2689816 -0.19534253 0.43330607
0003b0 d5 4c 75 3e f0 e4 24 bf 17 74 77 bf e4 49 3c 3f
       0.2395509 -0.6441183 -0.96661514 0.7355025
0003c0 8b fc 24 be b7 91 7a 3e 4c 3d 5c 3e 3e bb 2b bc
       -0.16111962 0.24469648 0.21507758 -0.010481654
0003d0 1d 17 90 bd 0a 78 ae 3c 76 b6 f6 3d 4c a4 62 3e
       -0.070356585 0.021297473 0.120465204 0.22132987
0003e0 92 19 03 3e 4a a3 8c bc 65 d1 39 bd 33 f2 08 3d
       0.12802723 -0.017167706 -0.04536571 0.033434104
0003f0 39 c4 84 3b 93 61 9c bc 61 98 0b be d3 5d d2 3c
       0.004051712 -0.019089496 -0.13632347 0.025679504

conv1.0.bias f4 [16]
000000 1b 08 a4 bd 3a 20 36 be a5 91 f2 bd 08 3a e5 bd
       -0.080093585 -0.17785731 -0.11844186 -0.11192709
000010 da 1b 0b bf 13 48 69 be 36 d6 71 be 2d 9e 2e be
       -0.54339373 -0.227814 -0.23616871 -0.17052527
000020 15 ae 64 bd 24 72 20 3d e9 3e 72 3e 68 09 67 be
       -0.05583008 0.039171353 0.23656811 -0.22562182
000030 22 93 82 be fe 6d 22 be 55 a1 00 be 79 2b 5a be
       -0.25502878 -0.15862271 -0.12561543 -0.21305646

conv2.0.weight f4 [32, 16, 3, 3]
000000 43 3b b4 bc a8 9c 4a be 86 22 9d 3e 81 54 5d be
       -0.022000914 -0.19786322 0.30690402 -0.21614267
000010 89 4b 05 3e 91 d8 00 3e 15 ca 8b be 18 96 ca be
       0.13017096 0.12582614 -0.27302614 -0.39567637
000020 d1 c0 25 3e 3f a2 43 be 25 d8 50 3e e6 bd 12 3d
       0.16186835 -0.1910486 0.20394953 0.035825633
000030 36 fc 84 3c e8 fe a6 be ea 6f 0c 3d dd ab 2b bd
       0.016233545 -0.32616353 0.034286417 -0.04191195
000040 2f 6d be 3d ca 6d 52 be 37 1a d1 3c 59 46 ab bc
       0.09298169 -0.20549694 0.025525196 -0.020907568
000050 f9 c1 29 be 79 5d f1 3d be 33 af 3e 72 a5 bb 3c
       -0.16577901 0.117854066 0.34219164 0.022906039
000060 4c 77 e3 3d ed 52 5a bd 54 dc 23 3e 9d 8a a7 3c
       0.111067384 -0.05330174 0.16002017 0.020451838
000070 8f 39 9a be 15 3a dd 3d 08 71 9e bd 20 60 15 be
       -0.3012204 0.10802094 -0.07736403 -0.1458745
000080 ee 31 3c be a9 77 f1 3d ea b7 77 38 85 43 9f 3d
       -0.18378422 0.117904015 5.9060672e-05 0.0777655
000090 e6 7c d1 bc c4 77 25 3e 27 d7 5d bd 0b bf 37 3e
       -0.025572252 0.16158968 -0.054160263 0.17943971
0000a0 d3 8d 42 3c 41 23 68 3d a2 6f 29 bd 02 ad 05 bf
       0.011874634 0.056674246 -0.041366227 -0.52217114
0000b0 29 9c 34 bd b4 01 18 3e 9e bb 02 bd 4d de 34 3e
       -0.04409424 0.148444 -0.031917207 0.17662926
0000c0 89 e9 26 be 5e 28 44 be 39 63 9c be 34 1d a0 bd
       -0.16300024 -0.19156024 -0.3054445 -0.0781807
0000d0 19 05 3c bd e3 b3 35 bd 64 87 32 3e 7f 84 a2 3d
       -0.0459033 -0.044361006 0.1743446 0.07935428
0000e0 d8 92 0a 3e 41 69 29 3e e8 24 db bd 85 59 1c be
       0.13532579 0.16544057 -0.10700399 -0.15268524
0000f0 a8 03 2a 3e 48 80 02 be 6a b9 41 be 97 7b ad 3d
       0.16602957 -0.12744248 -0.18918386 0.084708385
000100 a3 bb 82 bc 6e b5 0b 3d 9e f1 97 be 2c 05 52 be
       -0.015958613 0.03410857 -0.29676527 -0.20509785
000110 27 f9 65 3d a6 dd 89 3c fe ce 06 be 26 dd 55 be
       0.056145813 0.016829323 -0.13164899 -0.20885143
000120 eb 38 5f be eb 44 7f 3d 2e 4d 66 be ee 1a 81 bd
       -0.21799056 0.062321585 -0.22490379 -0.063039646
000130 f0 f5 01 3d 7b 7a 50 3d 5d 80 56 3d da a4 26 be
       0.031728685 0.050898056 0.05236851 -0.16273823
000140 af ec c2 3c a6 e5 a2 3d aa 62 9c bd f3 90 24 bd
       0.0237945 0.07953958 -0.07636006 -0.040177297
000150 9b 97 d1 bd 96 df ea bd ec 6e 2e 3e 12 67 76 be
       -0.102339946 -0.11468427 0.17034501 -0.24062756
000160 2d a7 87 bd cb 15 ef bc 31 43 f0 bc 20 f3 4e 3e
       -0.06623683 -0.029185196 -0.029328914 0.20209932
000170 48 c8 29 3c a5 8a 0d 3e 42 e4 81 3e be 8d 35 3e
       0.010362692 0.1382242 0.2536946 0.17729852
000180 d5 02 00 3c 5c c5 7d 3e 60 99 39 bb fa b7 98 3d
       0.007813175 0.24782318 -0.0028320178 0.07456966
000190 c8 ea 4a 3c b1 0b 00 be 16 9c 80 3d 43 df 76 3d
       0.012385078 -0.1250446 0.06279771 0.060271513
0001a0 06 a5 db 3c 97 9e cb be 3a 74 e2 bd c2 c2 bc 3d
       0.026812088 -0.39769432 -0.11057325 0.092168346
0001b0 bb 45 9b 3d 57 b2 82 3e dc 11 9b be d3 5b dd 3e
       0.075816594 0.25526688 -0.30287063 0.4323412
0001c0 ec b0 94 3e 46 56 f9 3e e4 da 70 3e 50 51 23 3d
       0.2904123 0.48698634 0.23521 0.039872468
0001d0 37 90 9c bd d4 38 25 3d d9 ea 07 bd 0e f8 4d 3d
       -0.07644694 0.0403374 -0.033182953 0.05028539
0001e0 8c 37 b8 bb 47 be 2a be 35 fc f9 bc 99 5f f3 bc
       -0.005621856 -0.16674148 -0.03051577 -0.02970867
0001f0 84 40 2e bd 62 a9 12 3e ea 7e 37 bd cc b5 84 be
       -0.042541996 0.14322427 -0.04479877 -0.2591995
000200 5b a5 2a 3e 8c 0a 63 bc bf 8d 31 3e e8 00 36 be
       0.1666464 -0.013857495 0.17339228 -0.17773783
000210 29 a7 fd bd df c7 87 3d 66 94 bc 3d a6 fa cb bc
       -0.12385399 0.06629919 0.09207992 -0.024899792
000220 15 7e 43 be 61 45 6a be 7e bf b1 bd 25 ed ad 3b
       -0.19091065 -0.22878028 -0.08679102 0.005307811
000230 73 c7 90 3e d5 08 ef bd 49 b2 97 3d f9 33 2b be
       0.28277168 -0.116716065 0.07407052 -0.16719045
000240 f1 af 25 3e a1 0f 54 3d 19 3b a4 3d 13 2a 9b be
       0.16180398 0.051772717 0.080190845 -0.30305538
000250 0c bc 21 3d bb cd 08 bd 22 12 ba be 7c 21 73 3d
       0.039485976 -0.033399325 -0.3634196 0.059358105
000260 48 d8 8f bd 14 bc 80 be 85 ad 18 3e 78 e6 2a be
       -0.07023674 -0.25143492 0.14909942 -0.1668948
000270 c5 2a 92 3e 02 fc 8d 3d 4e 7f b8 bd 23 67 2d 3e
       0.28548256 0.06932832 -0.090086564 0.16933875
000280 8d 68 09 3e a4 6c ba 3d 0f 61 4e 3d 56 8b e1 bd
       0.13418789 0.09102753 0.05038553 -0.11012904
000290 07 0c 88 bd ed 58 8b be 8b 9e af bd 03 e7 17 3d
       -0.06642919 -0.27216282 -0.085751615 0.037085544
0002a0 67 0a 01 3d 69 6f 3c 3d ec 52 2c be 46 0c 0b be
       0.03150406 0.046004687 -0.16828507 -0.135789
0002b0 55 6d dd 3e f3 60 a7 bd 2c 51 7b be 12 02 25 3e
       0.43247476 -0.081727885 -0.24542683 0.16114071
0002c0 1a 30 26 be c0 9c bd 3d fa 2c 00 bc ad 7e 0e 3e
       -0.16229287 0.09258413 -0.007823223 0.1391551
0002d0 78 1c 64 3e 8d 13 4f be 38 a6 95 3e 84 4f f8 bc
       0.22276485 -0.20222302 0.29228377 -0.030311354
0002e0 53 bb ef 3e 0c e4 a5 be d1 e0 32 3c e2 8c 00 bf
       0.46822605 -0.32400548 0.010917858 -0.5021497
0002f0 7b 7b cb 3e 3d 2d 34 3e ae 8f 8d 3e 95 04 84 3e
       0.39742646 0.17595382 0.2764868 0.25784746
000300 a4 52 bb bd 61 c3 f3 3a 8e 7d 96 bd 5a fe a5 be
       -0.09146622 0.0018597656 -0.073481664 -0.32420617
000310 25 4c 1e be 87 c5 0c 3e c2 8c 07 3e b8 61 68 3d
       -0.15458734 0.13747226 0.13237289 0.056733817
000320 8f 43 1f 3e 8e 3e 1d 3d 3c 8c 21 bd f8 5f 1e be
       0.15553115 0.038389735 -0.03944038 -0.15466297
000330 0b 68 05 3e 06 1f 1b bb 20 b3 c7 3d 05 c8 29 3e
       0.1302797 -0.0023669614 0.09750962 0.16580208
000340 ab 17 b9 bd a3 cb 06 3d 04 5d e3 bb ef 8c 4e bd
       -0.090377174 0.032909047 -0.0069385786 -0.050427373
000350 a6 a2 3a bd fd 17 dc be b8 89 01 bd 6a fa f1 bc
       -0.04556527 -0.42987052 -0.03162548 -0.029538352
000360 fa 90 cf bc a8 17 e0 bd 9d 27 43 bb aa 69 4a 3d
       -0.025337685 -0.10942012 -0.002977825 0.049417175
000370 33 20 c5 be 8a c3 ad 3d ed 1d 18 3d 48 a6 53 3e
       -0.3850113 0.08484562 0.037137914 0.206689
000380 57 eb 38 be d4 54 cb 3d 69 74 fa bd bb f2 99 ba
       -0.18058525 0.09928289 -0.12229235 -0.0011745313
000390 1c d6 45 bd f2 04 0b 3d 0b b1 1f bd bf 38 ef 3d
       -0.048299894 0.033940263 -0.0389872 0.11680745
0003a0 9f 31 ae be 33 21 3f be 5c 7b ed bc 3e f2 91 be
       -0.34022233 -0.18665008 -0.028989486 -0.2850513
0003b0 cd a5 f4 bc e1 93 02 be 4a 3e 58 3d b7 4b 34 bd
       -0.029864216 -0.12751724 0.05279378 -0.04401752
0003c0 95 d4 bc 3c 98 f7 21 3e ba b7 8b be 6c 56 13 be
       0.023050586 0.15817106 -0.2728861 -0.14388436
0003d0 9e 51 5c bc 34 0a 87 3d df 09 08 bd 9b fe 71 be
       -0.013447193 0.06593743 -0.03321254 -0.2363228
0003e0 0d c0 b0 bd b1 b5 46 be 4b 03 5d bd 95 af a0 be
       -0.08630381 -0.19405247 -0.05395822 -0.31383958
0003f0 db 1e b0 3e 4c 36 f9 3d a7 cc ab 3d 42 4f f9 bd
       0.3439854 0.121685594 0.08388644 -0.1217332

conv2.0.bias f4 [32]
000000 cd 6a 4d be e5 a9 01 be c8 74 3f be 1d 91 da 3b
       -0.20060273 -0.12662466 -0.18696892 0.006670131
000010 da 00 57 be be 47 9f be b6 84 67 bd 22 3b 5f bc
       -0.20996419 -0.31109422 -0.056523047 -0.013624938
000020 49 04 d5 bd ef 98 80 be 55 a5 b9 be 77 81 90 be
       -0.10401208 -0.2511668 -0.3625895 -0.28223774
000030 a7 f3 bd bd 41 79 19 be 80 b6 9a be d3 2a d3 bd
       -0.092749886 -0.14987661 -0.3021736 -0.103109024
000040 9e 14 52 be 90 19 06 be ba cb 31 be 6a 65 3b be
       -0.20515677 -0.13095689 -0.17362872 -0.18300405
000050 24 eb 86 be 49 24 d2 bd 2c bc 10 be b9 1f d1 bd
       -0.26351273 -0.10260827 -0.14134282 -0.10211129
000060 b9 0f 4c be 90 83 d8 bd 7e 24 f9 bd aa d0 f0 be
       -0.19927873 -0.105719686 -0.121651635 -0.47034198
000070 75 dc 15 be 28 f2 94 bd 58 14 ae be 1e 86 8d bd
       -0.14634879 -0.0727275 -0.33999896 -0.069103464

out.0.weight f4 [6, 1152]
000000 35 01 70 be 68 8a c6 bd 7e 94 9b be 56 91 18 3d
       -0.2343796 -0.09694368 -0.30386728 0.03724798
000010 57 1b 68 bd 55 c4 48 be ad e7 89 be 6f a5 d0 bd
       -0.0566667 -0.19606145 -0.26934567 -0.10187804
000020 43 8c 4e 3c 34 6d 4c be 5d 70 07 be c6 2c e4 bd
       0.012606683 -0.19963533 -0.13226457 -0.11141352
000030 d7 14 1f 3d 55 d0 bf 3d 33 47 86 be 78 88 d3 ba
       0.038838234 0.09365908 -0.26226196 -0.0016138693
000040 da 7c c6 be 9e 80 73 bd 74 4b 1b bf a4 9d 90 be
       -0.3876713 -0.05944883 -0.6066201 -0.2824527
000050 5d 1d 07 be ef 95 40 3e 46 33 d7 be ca 8f ca bc
       -0.13194795 0.18807195 -0.42031306 -0.024726767
000060 8a ce 02 be a3 4d 8e be 73 93 17 be c9 5b 3c 3d
       -0.12774101 -0.27793607 -0.14802341 0.04598597
000070 ec bf 1d 3e 2d b4 19 be d5 58 cf bd 25 c6 aa bd
       0.15405244 -0.15010138 -0.10124365 -0.08338574
000080 6d 33 ec bd 1d 08 83 be d8 dd aa be 72 1b 20 be
       -0.11533246 -0.25592127 -0.33372378 -0.1563547
000090 a6 95 0d 3e fd 1f e9 bc 34 6e 08 3e c9 bc 7a be
       0.13826618 -0.028457636 0.13323289 -0.24486078
0000a0 bb b9 f9 bd 6e be b3 be 35 eb df 3c dc 38 0c be
       -0.121936284 -0.35106224 0.027333835 -0.13693565
0000b0 0a 1a 61 3e f9 1b 2b bf 99 38 cc be 06 a0 42 be
       0.2198259 -0.6683956 -0.3988693 -0.19006357
0000c0 f4 ca 7d bd 20 c0 83 be af b8 ff bd 09 70 d9 bd
       -0.06196113 -0.25732517 -0.124863975 -0.10617072
0000d0 2b 7f ae bb 80 4b 59 be ec 01 3f bf 53 62 96 bf
       -0.005325218 -0.21220207 -0.7461231 -1.1748756
0000e0 c7 37 e9 bf 67 a2 cb bf 14 2f 37 3e 4a 7d 0c 3d
       -1.8220147 -1.5908936 0.17889053 0.034299172
0000f0 a4 2e 44 bd 8f d9 96 bd d8 09 7f bb 4a d9 1a be
       -0.047896042 -0.07365715 -0.003891578 -0.15121952
000100 ef c7 db 3d 26 31 3f be 08 0c 77 bd 43 1e cd be
       0.10731494 -0.18671092 -0.06031421 -0.4006215
000110 ba 56 2f bf eb b7 06 bf 1e a8 11 bf 81 19 a6 be
       -0.6849171 -0.52624387 -0.5689715 -0.32441333
000120 4e 14 42 be 5a 15 80 be be 79 a5 be 0f e3 69 3e
       -0.18953058 -0.2501629 -0.32319444 0.22840522
000130 52 90 1c be eb d9 ed bd 02 b4 c4 be e2 58 2b be
       -0.15289429 -0.1161383 -0.38418585 -0.16733125
000140 7f 5a 39 be cc 7c 21 3d e6 e7 db 3c 4c 0d d3 3d
       -0.18100928 0.039425656 0.026843976 0.103052706
000150 52 25 87 3d 79 ed 90 b9 7c 25 2f 3e d5 c5 d9 be
       0.06598915 -0.0002764275 0.17104143 -0.42533746
000160 d6 27 8d be fe 3a 1a be 1f 24 a7 be 55 c5 08 be
       -0.27569455 -0.15061566 -0.32644746 -0.13356526
000170 3d d0 21 bf df c7 32 be 28 83 be bd fb b1 13 3e
       -0.6320837 -0.17459057 -0.0930236 0.14423363
000180 e8 1b f6 3e 64 af eb 3e 09 3d 01 3e 24 f9 e1 bd
       0.48068166 0.4603225 0.1262094 -0.11033848
000190 78 54 05 bf cf 78 c0 3c 90 51 f8 be 07 ba f9 bd
       -0.52082014 0.023495106 -0.48499727 -0.12193685
0001a0 33 e2 c6 be 5a a7 d2 bd 2d 68 01 be a6 20 9f 3b
       -0.3884445 -0.10285826 -0.12637396 0.004856187
0001b0 01 fb 08 bf 63 8c 95 bd 64 15 17 bf 19 83 b9 be
       -0.53508 -0.07302167 -0.59017015 -0.36232832
0001c0 11 11 00 be a4 86 8c bd 8c 34 39 bd 3c 1f 8b be
       -0.1250651 -0.06861618 -0.04521613 -0.27172267
0001d0 b6 b4 24 3d e3 41 5a bd ef ee f4 bd 1e f2 9d be
       0.040211402 -0.05328549 -0.119596355 -0.30848783
0001e0 f4 ff 6a bf 71 71 98 39 52 5e 8f be 23 53 1d 3d
       -0.91796803 0.0002907622 -0.28001648 0.038409363
0001f0 5e c0 4e be a1 22 00 3f b6 ce 79 be 50 6d 40 bf
       -0.2019057 0.5005284 -0.2439526 -0.751668
000200 fb ae 1e be 81 a4 ad bd a9 a8 99 3c b3 09 21 be
       -0.15496437 -0.08478642 0.018757181 -0.15726356
000210 6a 1a 5f bf 0e 35 4d bd 50 5f d1 bd 39 b4 7a bc
       -0.8714968 -0.050099425 -0.102232575 -0.0153017575
000220 10 43 aa be 10 1d 9d bc a7 de 1f be 02 a9 a0 be
       -0.3325429 -0.019178897 -0.15612279 -0.31378943
000230 42 1f e6 bd a0 63 5e 3b 2a 6f f4 3d 72 d7 37 be
       -0.11236431 0.0033933893 0.11935265 -0.1795328
000240 97 5c 8f be ee d8 aa be c9 38 78 bd 2d f5 89 be
       -0.28000328 -0.3336863 -0.06060103 -0.26944867
000250 25 60 9c bd f3 05 cb be bf 93 8d be dc bd a4 bd
       -0.076355256 -0.39652976 -0.27651784 -0.08044025
000260 54 6e 1e bd 90 6f 95 be 5d 0e b3 bd 20 17 00 bd
       -0.038679436 -0.29186678 -0.08742974 -0.031272054
000270 84 17 ab be c9 cc a6 be 05 77 4b be 21 24 e6 bc
       -0.33416378 -0.32578114 -0.19869621 -0.0280934
000280 3e 65 ec 3d 91 9f 5b be 62 41 05 3e 1e e3 26 3e
       0.11542748 -0.21447589 0.13013223 0.16297576
000290 ef 7f 72 c0 bd f8 71 3e bf 76 41 3e 26 59 12 bb
       -3.7890584 0.23630042 0.18892954 -0.0022330969
0002a0 26 a2 35 be 5d b3 1e 3d f8 c4 94 3c b3 46 d3 bd
       -0.17737636 0.038745273 0.018160328 -0.10316219
0002b0 09 dc 21 be bb c6 9c be cb 2a a1 be c6 ac 10 be
       -0.15806593 -0.3062037 -0.3147796 -0.14128408
0002c0 d1 71 76 be f2 2b b1 bd 29 18 20 be 45 91 2a bd
       -0.24066855 -0.0865096 -0.15634216 -0.041642446
0002d0 b3 19 ed 3d 63 ca c2 be d1 2b 08 be 79 10 07 be
       0.11577167 -0.38045034 -0.13297965 -0.13189878
0002e0 84 9a c6 3c 1e 04 b7 be 3b da b4 3d 10 e7 68 3d
       0.0242436 -0.3574533 0.08830687 0.056860983
0002f0 4e 2f a4 bd d2 fe ad bd eb d2 42 be 7e 8a dc be
       -0.08016835 -0.08495869 -0.19025771 -0.4307441
000300 91 b0 19 3e c1 51 89 bd ed 33 87 bd cb 07 60 be
       0.15008761 -0.067050464 -0.06601701 -0.21877973
000310 3b 69 cb bd ec 82 bd bd 3c cc 04 bc 4b 02 00 be
       -0.099321805 -0.09253487 -0.008105334 -0.12500875
000320 07 06 c0 3e c8 ea be ba 46 4a b2 bf a7 94 16 bf
       0.37504598 -0.001456582 -1.3928916 -0.58820575
000330 dc 75 9c 3e 3c 6b ce bd d9 22 43 be a5 4a c8 be
       0.3055867 -0.10079047 -0.19056262 -0.3911945
000340 f6 30 c3 3d c6 e5 17 be 8a 82 6b bc 47 d7 5c 3c
       0.09530823 -0.14833745 -0.014374385 0.0134790605
000350 0a 79 da bd f1 89 1c be 96 d1 3c be 3f 3c ed be
       -0.106676176 -0.15286995 -0.18439326 -0.46335027
000360 84 75 f4 bc 7d 77 20 bc 72 31 89 3d 34 61 a5 bc
       -0.029841192 -0.009794113 0.06698884 -0.020187952
000370 18 dd dc bd 18 fe 05 be 36 d7 11 be a9 59 3b be
       -0.10784358 -0.1308521 -0.14242253 -0.18295921
000380 e8 5a 2c be ff fa 77 be 1f a5 35 be b3 9a 4b be
       -0.16831553 -0.24216841 -0.1773877 -0.19883232
000390 06 c1 05 bd 0f f7 38 3e 14 62 8a bf df 10 89 be
       -0.032654785 0.18062995 -1.0811181 -0.26770684
0003a0 34 93 d1 3d e4 e9 df bd 27 bc b5 3d e0 cd 11 3e
       0.10233155 -0.10933283 0.08873778 0.14238691
0003b0 5a 91 10 3f a4 cf da ba 01 91 d3 be b6 f2 c1 bd
       0.5647179 -0.0016693962 -0.41321567 -0.094701216
0003c0 db dc a6 be c5 3b 76 be 52 ec 51 bf 81 0b d8 be
       -0.32590374 -0.24046238 -0.8200122 -0.42196277
0003d0 f1 65 09 be c5 bd 77 be ff fb 8b bd 13 5b 30 be
       -0.13417794 -0.24193485 -0.06835174 -0.17222242
0003e0 cd 22 87 bd 2c c2 33 be a8 3b 6b be 5c 61 12 be
       -0.065984346 -0.1755454 -0.22971976 -0.14294952
0003f0 2b 88 9b bd f7 dd eb bd 70 e7 77 bd d1 87 10 be
       -0.07594331 -0.11516946 -0.06052345 -0.1411431

out.0.bias f4 [6]
000000 ee 4a 4f bd 90 e7 cf bd 6b 55 24 be 10 05 48 bd
       -0.050608568 -0.10151589 -0.1604821 -0.048832953
000010 61 ec 1c c0 c5 48 ee bc
       -2.4519274 -0.029087434
