agent_code/Least_Ultimate_agent/my-saved-model_0.pt (torch, 52255 bytes, 6 tensors)

conv1.0.weight f4 [16, 6, 3, 3]
0	0xbd7da396	-0.061923586
1	0x3ed26945	0.4109594
2	0x3e5e8d61	0.2173362
3	0xbe4d5ab0	-0.20054126
4	0x3e8b5985	0.27216735
5	0xbe9aacba	-0.30209905
6	0xbd4c0851	-0.04981262
7	0xbeabfd7b	-0.33591828
8	0x3e63d1f7	0.22248064
9	0x3ece6547	0.40311643
10	0xbf260642	-0.648533
11	0xbec685a3	-0.38773832
12	0xbfc32c75	-1.5247942
13	0xbfb6fadd	-1.4295307
14	0xc05807b9	-3.3754714
15	0x3f1ccc93	0.61249655
16	0xbf035fc4	-0.51318
17	0xbec955fc	-0.39323413
18	0x3c4c080a	0.012453089
19	0x3d86bae6	0.06578617
20	0x3e74b469	0.23896946
21	0xbda6977e	-0.081343636
22	0x3f086a18	0.53286886
23	0xbf0fcdbc	-0.561733
24	0xbd65e8a8	-0.05613008
25	0x3d3fac4c	0.046795174
26	0x3f0bcd5d	0.54610234
27	0xbd853656	-0.065045044
28	0x3c3bcdf8	0.011462681
29	0x3d4781e4	0.048707858
30	0x3e2a7c9a	0.16649094
31	0xbca78bda	-0.020452429
32	0x3e45fc4e	0.19334528
33	0xbdaacd13	-0.08339896
34	0x3dec4969	0.115374394
35	0x3c933aaa	0.01797231
36	0x3cc0f245	0.023553023
37	0x3d59dec3	0.053190958
38	0x3d92d8f4	0.07170287
39	0x3bf88d91	0.0075852354
40	0xbc6a5ebd	-0.014304814
41	0x3d9461e3	0.07245233
42	0xbaeaec85	-0.0017923272
43	0xbdc9a344	-0.098455936
44	0x3da5ea00	0.081012726
45	0xbdc4a65d	-0.09602044
46	0x3e026ce2	0.12736848
47	0xbec1dea1	-0.37865165
48	0xbb55f7af	-0.0032648852
49	0xbdc7a8dc	-0.09749004
50	0x3dc20746	0.094740435
51	0xbe9c6e99	-0.3055313
52	0x3e1cd298	0.1531471
53	0xbda5a29b	-0.08087655
54	0xbf1e0b4e	-0.61736
55	0x3e24caa3	0.16092925
56	0xbf63e92b	-0.8902766
57	0xbebb3653	-0.36564884
58	0xbea3ed93	-0.32017192
59	0x3f0a53a9	0.54033905
60	0xbe1ff5aa	-0.15621057
61	0x3eddd3c5	0.4332563
62	0xbf42a764	-0.7603667
63	0xbe59cfb9	-0.21270646
64	0x3f96f54b	1.1793607
65	0xbfa5070a	-1.2892773
66	0x3f91654c	1.1359038
67	0x3fde3a30	1.7361507
68	0x3feb3921	1.8376809
69	0x3efad70a	0.48992187
70	0x3fb27ddb	1.3944658
71	0xbe73fc2b	-0.23826663
72	0xbde87f50	-0.11352408
73	0x3e4b5015	0.19854768
74	0xbe61817a	-0.22022048
75	0x3c319db6	0.010840824
76	0xbc4efdca	-0.01263375
77	0x3d823541	0.063578136
78	0x3e107349	0.14106478
79	0xbb060411	-0.00204492
80	0x3c5532cb	0.013012598
81	0xbd7513ab	-0.05983321
82	0xb99ecd6a	-0.00030289154
83	0x3d033f3f	0.032042738
84	0xbcd9a4fe	-0.026567932
85	0xbd30c105	-0.043152828
86	0xbcd51dce	-0.026015189
87	0x3d179b38	0.037013263
88	0xbb23286d	-0.0024895922
89	0x3aa469f8	0.0012543788
90	0x3cafcc1a	0.021459628
91	0xba9d406b	-0.0011997347
92	0xbc4c2eb1	-0.012462304
93	0x3bd7e7b4	0.0065889005
94	0xbd6b6933	-0.057473373
95	0xbd02abbb	-0.031902056
96	0x3d8d808c	0.06909284
97	0x3cd568dc	0.026050977
98	0xbc39021c	-0.011292007
99	0x3e977246	0.2957937
100	0x3d8e4bdc	0.06948063
101	0x3e46b326	0.19404277
102	0xbe6f061e	-0.23342177
103	0x3e20dd33	0.15709381
104	0xbd7bb479	-0.06145141
105	0x3e0e7565	0.1391197
106	0xbd66b059	-0.056320522
107	0x3d8881b9	0.06665368
108	0xbd36ead6	-0.04465755
109	0xbf077174	-0.5290749
110	0x3e92cb46	0.2867071
111	0xbf49ec36	-0.78876054
112	0xbe517369	-0.20454182
113	0xbf4fd1ca	-0.8117949
114	0xbde09785	-0.109664
115	0xbee11b2a	-0.43966037
116	0xbdc8954a	-0.097941
117	0x3f1dddf3	0.6166679
118	0xbee87bbd	-0.45406905
119	0x3f4d256c	0.80135226
120	0xbf96a905	-1.1770331
121	0xc0025feb	-2.0371044
122	0xbfa18779	-1.2619468
123	0xbe8b92bc	-0.27260387
124	0xbef5cf52	-0.48009735
125	0xbe2e39fa	-0.17014304
126	0x3da646f2	0.081190005
127	0x3e882d54	0.26597083
128	0xbd37f715	-0.04491337
129	0x3dbda3eb	0.092597805
130	0xbf5f9ded	-0.8735035
131	0xbe24a2ca	-0.16077724
132	0xbdf2c7e1	-0.1185453
133	0xbe2d9fda	-0.1695551
134	0xbe5807fd	-0.21096797
135	0x3c8b6727	0.01701696
136	0xbd8dc60e	-0.069225416
137	0x3c4c541f	0.012471228
138	0xbe038dd1	-0.12847067
139	0x3e1461b8	0.14490402
140	0x3cc45e8e	0.023970868
141	0xbc192b46	-0.009348696
142	0xbd91adc0	-0.07113218
143	0x3d54ed87	0.051984336
144	0xbe04a16b	-0.12952201
145	0xbb386c66	-0.0028140782
146	0x3d4eed7a	0.050519444
147	0x3b551d13	0.003251855
148	0x3d06b681	0.032888893
149	0x3d873cac	0.06603369
150	0x3db670ae	0.08908211
151	0x3e391400	0.18074036
152	0x3d945d9c	0.07244417
153	0xbdb8d900	-0.090257645
154	0x3e622c61	0.22087242
155	0x3e2e6f51	0.17034651
156	0x3e448bc0	0.19193935
157	0x3e81d578	0.25358176
158	0x3f1584d3	0.584058
159	0x3d26b9ed	0.040704656
160	0x3e0290ba	0.12750521
161	0x3e9d863f	0.30766484
162	0x3ed89140	0.42298317
163	0xbe1698b7	-0.14706694
164	0x3e46d81a	0.19418374
165	0xbe8c4354	-0.27395117
166	0x3edc6477	0.430454
167	0xbd93db79	-0.072195955
168	0x3f006466	0.50153196
169	0xbe3ca666	-0.18422851
170	0x3e98572c	0.29754007
171	0xbfa5bf91	-1.2949086
172	0xbfada57f	-1.356613
173	0xbf2f8c8b	-0.68573827
174	0x3e1668fc	0.14688486
175	0xbfa89a91	-1.317217
176	0x3e1063f2	0.14100626
177	0xbf3f30f2	-0.7468406
178	0xbfd13505	-1.6344305
179	0xbf534dd8	-0.82540655
180	0x3e06e60d	0.13173695
181	0x3e181abf	0.14853953
182	0xbdbfec50	-0.09371245
183	0xbddb3c26	-0.10704832
184	0x3e99d6a4	0.3004657
185	0xbd8a0cfe	-0.06740759
186	0x3f17ced0	0.59299946
187	0xbf2a01d7	-0.6640906
188	0x3e5b4017	0.21411167
189	0xbd89dc8b	-0.06731518
190	0x3d8dff28	0.06933433
191	0xbd224b0e	-0.03962236
192	0x3c12ffd2	0.008972125
193	0xbda2f7a6	-0.079573914
194	0x3b853d50	0.004066147
195	0xbd122631	-0.035680953
196	0x3e5bba3f	0.21457766
197	0x3d3f27d2	0.046668835
198	0xbdf05980	-0.11735821
199	0xbc5c5775	-0.013448586
200	0xbccfa0d1	-0.025345238
201	0xbcdbd2d1	-0.026833924
202	0xbdb062f5	-0.086126246
203	0xbda40254	-0.080082566
204	0x3c3bf8a7	0.011472858
205	0xbd8080eb	-0.06274589
206	0xbe028c84	-0.12748915
207	0xbdc5b335	-0.09653322
208	0x3dff2d93	0.124598645
209	0xbe3bea78	-0.18351161
210	0xbed4dacb	-0.41573176
211	0xbe23d848	-0.16000473
212	0xbe04ade2	-0.12956956
213	0xbed2f1c6	-0.41200083
214	0x3db9d0c2	0.090730205
215	0xbe3eb017	-0.1862186
216	0x3e17ce82	0.1482487
217	0x3eb69ae4	0.35665047
218	0x3c4cf18a	0.012508759
219	0xbc4afb84	-0.012389068
220	0xbd98095e	-0.07423662
221	0xbd31c130	-0.04339713
222	0xbd09b510	-0.03361994
223	0xbd47c17a	-0.048768498
224	0xbd111c22	-0.03542722
225	0xbebb8b57	-0.36629745
226	0xbf5f0a78	-0.8712535
227	0x3e91dbd2	0.28488022
228	0xbf88e10a	-1.0693676
229	0xbf80b23b	-1.0054392
230	0x3e0ff47f	0.14058112
231	0xbeb0d730	-0.34539175
232	0x3ea82d66	0.32847136
233	0x3fa260a4	1.2685742
234	0xbe484fcd	-0.19561692
235	0x3edd992d	0.43280926
236	0x3e758d70	0.23979735
237	0xbf24f296	-0.64432657
238	0xbf776e9a	-0.9665314
239	0x3f3c7bda	0.7362648
240	0xbe24bde1	-0.16088058
241	0x3e79fa48	0.24411881
242	0x3e5d982b	0.21640079
243	0xbc2e6f18	-0.010646604
244	0xbd913eef	-0.07092082
245	0x3cad9f1f	0.021194039
246	0x3df6d2dd	0.12051938
247	0x3e626158	0.22107446
248	0x3e031992	0.12802723
249	0xbc86eba8	-0.016469792
250	0xbd3ed81a	-0.04659281
251	0x3d0b6513	0.03403194
252	0x3b84c439	0.004051712
253	0xbc9c6193	-0.019089496
254	0xbe0b9861	-0.13632347
255	0x3cd696f2	0.026195023

conv1.0.bias f4 [16]
0	0xbda40939	-0.080095716
1	0xbe360479	-0.17775144
2	0xbdf205bf	-0.11817502
3	0xbde7547f	-0.11295413
4	0xbf0af93b	-0.54286546
5	0xbe68b608	-0.2272569
6	0xbe717bf5	-0.23582442
7	0xbe2e03d0	-0.16993642
8	0xbd67d8cd	-0.05660324
9	0x3d1aef82	0.03782607
10	0x3e7382e0	0.23780394
11	0xbe6709f6	-0.22562394
12	0xbe821c27	-0.25412104
13	0xbe21c31d	-0.15797086
14	0xbe00391b	-0.12521784
15	0xbe597907	-0.21237575

conv2.0.weight f4 [32, 16, 3, 3]
0	0xbcb25944	-0.02177108
1	0xbe4a6446	-0.19764814
2	0x3e9d1035	0.30676427
3	0xbe5e4696	-0.21706614
4	0x3e05b584	0.13057524
5	0x3dfff471	0.124977954
6	0xbe8b6f45	-0.2723333
7	0xbecaa649	-0.3957999
8	0x3e2596b5	0.16170771
9	0xbe42eff4	-0.19036847
10	0x3e513f96	0.20434412
11	0x3d153665	0.036428828
12	0x3c8a3ec9	0.016875641
13	0xbea7af65	-0.32751003
14	0x3d0cd23f	0.034380194
15	0xbd2b40a0	-0.041809678
16	0x3dc05025	0.09390286
17	0xbe5254ba	-0.20540133
18	0x3cd31627	0.025767399
19	0xbca9f0e4	-0.020744748
20	0xbe2a575f	-0.16634892
21	0x3df355a7	0.11881571
22	0x3eaf4160	0.34229565
23	0x3cbf86a8	0.023379639
24	0x3de3aa96	0.11116521
25	0xbd55da7c	-0.052210316
26	0x3e2384ec	0.15968674
27	0x3cab9b2b	0.020948013
28	0xbe99a315	-0.30007234
29	0x3dde918e	0.10867606
30	0xbda0e6a9	-0.07856495
31	0xbe1515e7	-0.14559136
32	0xbe3cc205	-0.18433388
33	0x3df0fe3c	0.11767241
34	0x3a774d89	0.0009433856
35	0x3da10ecd	0.07864151
36	0xbcd42115	-0.025894681
37	0x3e25e588	0.1620084
38	0xbd62059c	-0.05518113
39	0x3e38520b	0.18000047
40	0x3c3dc0b4	0.011581589
41	0x3d6bd210	0.057573378
42	0xbd29e64f	-0.041479405
43	0xbf059595	-0.5218137
44	0xbd38a35d	-0.04507767
45	0x3e183ec9	0.148677
46	0xbd036107	-0.032074954
47	0x3e34a393	0.17640524
48	0xbe26fb94	-0.16306907
49	0xbe43932b	-0.19099109
50	0xbe9bfbeb	-0.30465636
51	0xbd9fc467	-0.07801133
52	0xbd3d0652	-0.046148606
53	0xbd37ee40	-0.044904947
54	0x3e329f18	0.17443502
55	0x3da363d5	0.07978026
56	0x3e0ad362	0.13557199
57	0x3e29808d	0.16552944
58	0xbddc1ede	-0.10748075
59	0xbe1c75a1	-0.15279247
60	0x3e2a27f9	0.16616811
61	0xbe039d30	-0.12852931
62	0xbe414b7d	-0.18876453
63	0x3daec6f0	0.08534038
64	0xbc8225bb	-0.015887132
65	0x3d0e090f	0.034676608
66	0xbe97f9a2	-0.29682642
67	0xbe5179e2	-0.20456651
68	0x3d68ed43	0.056866895
69	0x3c8b1059	0.016975569
70	0xbe0617f5	-0.13095076
71	0xbe54cf93	-0.20782308
72	0xbe5f42a2	-0.21802762
73	0x3d7e1106	0.062027954
74	0xbe669605	-0.22518165
75	0xbd7d326c	-0.061815664
76	0x3d02e4ba	0.031956412
77	0x3d5216b2	0.051291175
78	0x3d54fb94	0.051997736
79	0xbe26e7e9	-0.16299404
80	0x3cc985b3	0.024599886
81	0x3da44e92	0.080227986
82	0xbd9ad2b8	-0.07559723
83	0xbd1ffdb1	-0.0390603
84	0xbdd052ff	-0.1017208
85	0xbdeae256	-0.114689514
86	0x3e2e10fc	0.16998667
87	0xbe76295f	-0.2403922
88	0xbd85b649	-0.06528909
89	0xbcec961a	-0.028880168
90	0xbcf39358	-0.029733345
91	0x3e4eb558	0.20186365
92	0x3c1d2a19	0.009592556
93	0x3e0e2949	0.13882937
94	0x3e8274da	0.25479776
95	0x3e36c44e	0.17848322
96	0x3c02f864	0.007993791
97	0x3e7dc868	0.2478348
98	0xbb4e89e0	-0.0031515285
99	0x3d97e0cf	0.07415926
100	0x3c4d63b9	0.012535983
101	0xbe000049	-0.12500109
102	0x3d7d7fc2	0.061889417
103	0x3d73a510	0.059483588
104	0x3cd7d2db	0.02634566
105	0xbecbccf3	-0.398048
106	0xbde0d937	-0.109789304
107	0x3dbcf11a	0.09225674
108	0x3d9ae7d5	0.0756375
109	0x3e82b8c5	0.25531593
110	0xbe9b4ed9	-0.30333593
111	0x3edd7e84	0.43260586
112	0x3e94f542	0.29093367
113	0x3ef97659	0.48723105
114	0x3e709c0b	0.23497026
115	0x3d1f62a0	0.038912416
116	0xbd9d977c	-0.07694909
117	0x3d25f004	0.0405121
118	0xbd05346a	-0.03252069
119	0x3d4fc388	0.050723583
120	0xbbb814fe	-0.005617737
121	0xbe29d4e2	-0.16585115
122	0xbcf65eaf	-0.030074446
123	0xbcf4969c	-0.029856972
124	0xbd2b1080	-0.041763783
125	0x3e12d51d	0.14339109
126	0xbd35fcf7	-0.0444307
127	0xbe844170	-0.25831175
128	0x3e2aeb72	0.16691378
129	0xbc627627	-0.013822115
130	0x3e323637	0.17403494
131	0xbe363df4	-0.1779707
132	0xbdfc1d40	-0.123102665
133	0x3d88387b	0.06651398
134	0x3dbe0bcf	0.09279596
135	0xbcc8c2e3	-0.024506992
136	0xbe435c3e	-0.19078156
137	0xbe6974ce	-0.22798464
138	0xbdb05a32	-0.086109534
139	0x3b9e3d68	0.0048290975
140	0x3e90dde8	0.282943
141	0xbdee3601	-0.11631394
142	0x3d98f181	0.07467938
143	0xbe2a7a56	-0.1664823
144	0x3e25efaf	0.16204713
145	0x3d586634	0.052831843
146	0x3da337a3	0.07969596
147	0xbe9ae6b3	-0.30254135
148	0x3d23efd1	0.04002363
149	0xbd0582af	-0.032595333
150	0xbeb9fbea	-0.36325008
151	0x3d750f2f	0.059828933
152	0xbd90ebe7	-0.07076245
153	0xbe803a52	-0.25044495
154	0x3e18aad6	0.14908919
155	0xbe2aed92	-0.16692188
156	0x3e92d11d	0.28675166
157	0x3d8f748e	0.07004653
158	0xbdb6b0d3	-0.08920445
159	0x3e2d6da7	0.1693636
160	0x3e09a33f	0.1344118
161	0x3dba4a48	0.09096199
162	0x3d51df2c	0.051238224
163	0xbde0e243	-0.10980656
164	0xbd883377	-0.06650441
165	0xbe8ae027	-0.2712414
166	0xbdaf704e	-0.08566342
167	0x3d17b6c3	0.03703953
168	0x3d056cd0	0.032574475
169	0x3d3ed263	0.04658736
170	0xbe2b4f73	-0.16729526
171	0xbe0b6864	-0.1361404
172	0x3edd72b6	0.4325158
173	0xbda7de16	-0.081966564
174	0xbe7a9efa	-0.24474707
175	0x3e25388d	0.16134854
176	0xbe257123	-0.1615644
177	0x3dbe6fcd	0.09298668
178	0xbbfce39b	-0.0077175624
179	0x3e0d565c	0.13802475
180	0x3e64f5f7	0.22359453
181	0xbe4f537a	-0.20246688
182	0x3e9623c2	0.29324156
183	0xbcf5840f	-0.029970197
184	0x3eefdec4	0.46849644
185	0xbea5c9a4	-0.32380402
186	0x3c3b2f4a	0.011424849
187	0xbf00698e	-0.50161064
188	0x3ecbcf23	0.3980647
189	0x3e34d0c0	0.17657757
190	0x3e8e2baf	0.27767703
191	0x3e84610b	0.25855288
192	0xbdba070f	-0.090833776
193	0x3b30968a	0.0026945197
194	0xbd9672ab	-0.0734609
195	0xbea5ca85	-0.32381073
196	0xbe1d5d9d	-0.15367742
197	0x3e0d86f3	0.1382101
198	0x3e078cc2	0.13237289
199	0x3d687c11	0.056758944
200	0x3e1e8687	0.15481006
201	0x3d1e6f68	0.038680464
202	0xbd1d00f9	-0.038331006
203	0xbe1da604	-0.15395361
204	0x3e065a1a	0.13120309
205	0xbac047c1	-0.0014669822
206	0x3dc6d3f5	0.09708396
207	0x3e2a7737	0.1664704
208	0xbdb8a872	-0.090165034
209	0x3d0c9c83	0.03432895
210	0xbbe17f27	-0.006881613
211	0xbd4cb5e1	-0.04997814
212	0xbd36154c	-0.044453904
213	0xbedc024d	-0.42970505
214	0xbd00ab8c	-0.0314136
215	0xbcef5c35	-0.029218772
216	0xbcc778b7	-0.024349554
217	0xbddf47a5	-0.10902337
218	0xbb29ef7d	-0.00259301
219	0x3d48fb11	0.04906756
220	0xbec4ec0e	-0.38461345
221	0x3dae2ffb	0.08505245
222	0x3d17d0b0	0.037064254
223	0x3e5566d7	0.20840012
224	0xbe38481a	-0.17996255
225	0x3dcc08b9	0.09962601
226	0xbdfa7c1c	-0.12230703
227	0xba5c026d	-0.00083926955
228	0xbd44a905	-0.048012752
229	0x3d0cb7d3	0.034354996
230	0xbd1d3aea	-0.038386263
231	0x3defdfdf	0.11712622
232	0xbeae168b	-0.34001574
233	0xbe3e61d3	-0.18592004
234	0xbce8cc4e	-0.028417733
235	0xbe91adbe	-0.28452867
236	0xbcea87a5	-0.028629133
237	0xbe01f22c	-0.12690037
238	0x3d58d150	0.05293399
239	0xbd3502c1	-0.04419208
240	0x3cc9e3f0	0.024644822
241	0x3e220973	0.15823917
242	0xbe8b62fd	-0.2722396
243	0xbe12046f	-0.14259504
244	0xbc5d456e	-0.013505323
245	0x3d88c1cf	0.06677591
246	0xbd06515d	-0.032792438
247	0xbe711a77	-0.23545252
248	0xbdaf1aec	-0.08550057
249	0xbe462a28	-0.19352019
250	0xbd5e91e6	-0.05433836
251	0xbea042c3	-0.31300935
252	0x3eb0651d	0.34452143
253	0x3dfaf0bc	0.12252948
254	0x3dad89a7	0.08473521
255	0xbdf6958b	-0.12040242

conv2.0.bias f4 [32]
0	0xbe4cc239	-0.19995965
1	0xbe017de7	-0.12645684
2	0xbe3e4908	-0.18582547
3	0x3bfd4e53	0.0077302842
4	0xbe55fd42	-0.20897391
5	0xbe9f57af	-0.31121585
6	0xbd65af9e	-0.056075685
7	0xbc5e8667	-0.013581849
8	0xbdd44ffa	-0.10366817
9	0xbe80e494	-0.2517439
10	0xbeb99f98	-0.36254573
11	0xbe90310e	-0.28162426
12	0xbdbe73da	-0.09299441
13	0xbe18014f	-0.14844249
14	0xbe9a9e83	-0.3019906
15	0xbdd31677	-0.10307019
16	0xbe50a659	-0.20375957
17	0xbe05b839	-0.13058557
18	0xbe318c32	-0.17338637
19	0xbe3a7c4b	-0.18211477
20	0xbe86e81e	-0.26348966
21	0xbdd4049b	-0.10352441
22	0xbe10ef14	-0.14153701
23	0xbdd1e7de	-0.10249303
24	0xbe4c18db	-0.19931357
25	0xbdd7c44f	-0.1053549
26	0xbdf760ec	-0.12079033
27	0xbef099b7	-0.46992275
28	0xbe1648f5	-0.14676268
29	0xbd94d49e	-0.07267116
30	0xbead83b8	-0.33889556
31	0xbd8d7028	-0.06906158

out.0.weight f4 [6, 1152]
0	0xbe700135	-0.2343796
1	0xbdc779a3	-0.09739997
2	0xbe9bd8b0	-0.30438757
3	0x3d168900	0.036751747
4	0xbd6bcdf0	-0.057569444
5	0xbe498dd8	-0.19683015
6	0xbe8a237b	-0.26980194
7	0xbdd24ffa	-0.102691606
8	0x3c3fe28f	0.011711731
9	0xbe4d566e	-0.20052502
10	0xbe08e307	-0.13367854
11	0xbde75b68	-0.11296731
12	0x3d1f14d7	0.038838234
13	0x3dbec301	0.09314538
14	0xbe85e8bb	-0.26154122
15	0xbb2fd6e0	-0.0026830956
16	0xbec71338	-0.3888185
17	0xbd76f828	-0.060295254
18	0xbf1b8256	-0.6074575
19	0xbe90d3fb	-0.28286728
20	0xbe074a2e	-0.13211891
21	0x3e3edc7e	0.18638799
22	0xbed80952	-0.4219461
23	0xbcd1c4d0	-0.025606543
24	0xbe03e05a	-0.12878552
25	0xbe8eda60	-0.27900982
26	0xbe1856cd	-0.14876862
27	0x3d386725	0.04502024
28	0x3e1c2e6e	0.15252087
29	0xbe19b652	-0.15010956
30	0xbdd1a323	-0.10236194
31	0xbdac6b42	-0.08418895
32	0xbdeddb6d	-0.11614118
33	0xbe8360cb	-0.25659785
34	0xbeab7d26	-0.33493918
35	0xbe1fede5	-0.15618093
36	0x3e0d95a6	0.13826618
37	0xbce92030	-0.028457731
38	0x3e086e34	0.13323289
39	0xbe7b819a	-0.24561158
40	0xbdf9b9bb	-0.121936284
41	0xbeb3be6e	-0.35106224
42	0x3cdaaca5	0.026693651
43	0xbe0cd76d	-0.13754053
44	0x3e611a0a	0.2198259
45	0xbf2b6769	-0.66954666
46	0xbecc6fe8	-0.39929128
47	0xbe438997	-0.19095455
48	0xbd7dcaf4	-0.06196113
49	0xbe837e6d	-0.25682393
50	0xbdff8384	-0.124762565
51	0xbddb9fb2	-0.10723819
52	0xbb9d8d58	-0.0048081093
53	0xbe5a1b4d	-0.21299477
54	0xbf3f28c3	-0.7467157
55	0xbf96613f	-1.1748427
56	0xbfe9601b	-1.8232454
57	0xbfcba17e	-1.5908659
58	0x3e382634	0.17983323
59	0x3d0d1707	0.03444579
60	0xbd45facc	-0.04833488
61	0xbd95d297	-0.073155575
62	0xbb7d2522	-0.003862687
63	0xbe1bd8d4	-0.15219432
64	0x3ddab3a1	0.10678793
65	0xbe3fa370	-0.1871469
66	0xbd796e41	-0.060896162
67	0xbecd7958	-0.4013164
68	0xbf2f797c	-0.68544745
69	0xbf070887	-0.52747387
70	0xbf11a81e	-0.5689715
71	0xbea619ad	-0.32441464
72	0xbe429162	-0.19000772
73	0xbe80196e	-0.250194
74	0xbea579cd	-0.3231949
75	0x3e69bc9d	0.22825857
76	0xbe1d154c	-0.15340155
77	0xbdefade7	-0.11703091
78	0xbec4b402	-0.38418585
79	0xbe2b58e2	-0.16733125
80	0xbe38d6ef	-0.1805074
81	0x3d22496f	0.039620813
82	0x3ce3cc88	0.027807489
83	0x3dd20276	0.10254376
84	0x3d86129a	0.06546517
85	0xb938f20f	-0.00017637781
86	0x3e2ec7f6	0.17068467
87	0xbeda2e03	-0.4261323
88	0xbe8d6ade	-0.27620596
89	0xbe1a19ab	-0.15048854
90	0xbea7241f	-0.32644746
91	0xbe093f18	-0.13402975
92	0xbf21d952	-0.6322223
93	0xbe32423f	-0.17408083
94	0xbdbd5b8f	-0.09245979
95	0x3e148d19	0.1450695
96	0x3ef61be6	0.4806816
97	0x3eeb6ffe	0.4598388
98	0x3e01c106	0.12671289
99	0xbde46207	-0.1115151
100	0xbf058d3d	-0.5216864
101	0x3cb9610b	0.022629282
102	0xbef8ac4f	-0.4856896
103	0xbdfab461	-0.12241436
104	0xbec6a047	-0.38794157
105	0xbdd3fe59	-0.10351247
106	0xbe01cd79	-0.12676038
107	0x3b9f200d	0.0048561157
108	0xbf08fb01	-0.53508
109	0xbd968702	-0.073499694
110	0xbf1720a3	-0.59034175
111	0xbeb98319	-0.36232832
112	0xbe00e2ca	-0.12586513
113	0xbd8c86a4	-0.06861618
114	0xbd3b1249	-0.045671735
115	0xbe8b6179	-0.27222803
116	0x3d269c11	0.04067618
117	0xbd5e9b98	-0.054347605
118	0xbdf75392	-0.12076487
119	0xbe9e349f	-0.30899522
120	0xbf6b1aef	-0.9183797
121	0xb975e8f5	-0.00023451804
122	0xbe8fa4d4	-0.2805544
123	0x3d196b27	0.037455704
124	0xbe4dfbca	-0.20115581
125	0x3efff98e	0.49995083
126	0xbe7a213c	-0.2442674
127	0xbf4070f7	-0.7517237
128	0xbe1f91c9	-0.15582956
129	0xbdaddadb	-0.08489009
130	0x3c8fe1fb	0.01756381
131	0xbe227a51	-0.15866973
132	0xbf5f1a6a	-0.8714968
133	0xbd4b2524	-0.049595967
134	0xbdd1dc08	-0.10247046
135	0xbc83f8e5	-0.016109893
136	0xbeaa8086	-0.3330118
137	0xbc9d1d10	-0.019178897
138	0xbe20bd1a	-0.15697137
139	0xbea13fe8	-0.3149407
140	0xbde8f713	-0.11375251
141	0x3b253736	0.002520991
142	0x3df30f1b	0.118681155
143	0xbe38ac0b	-0.18034379
144	0xbe8f9b42	-0.2804814
145	0xbeab2723	-0.33428296
146	0xbd7c37a9	-0.06157652
147	0xbe8a827f	-0.27052686
148	0xbd9f1615	-0.07767884
149	0xbecbaec4	-0.39781773
150	0xbe8d93c1	-0.2765179
151	0xbda4c92e	-0.080461845
152	0xbd202b21	-0.03910363
153	0xbe9558ab	-0.2916921
154	0xbdb3a035	-0.087707914
155	0xbd04fde5	-0.032468695
156	0xbeab75d7	-0.33488342
157	0xbea6c1dc	-0.32569778
158	0xbe4d6e4a	-0.20061603
159	0xbce82912	-0.028339896
160	0x3de9ae50	0.114102006
161	0xbe5cdd4a	-0.2156879
162	0x3e05c559	0.13063563
163	0x3e25e885	0.1620198
164	0xc0729a74	-3.790677
165	0x3e71ffb0	0.23632693
166	0x3e412a92	0.18863896
167	0xbb6f9acf	-0.003656078
168	0xbe36bfb6	-0.1784657
169	0x3d1c3d67	0.038144495
170	0x3c877f63	0.016540235
171	0xbdd49e31	-0.10381735
172	0xbe23be20	-0.15990496
173	0xbe9d8fa6	-0.30773658
174	0xbea11f26	-0.31469077
175	0xbe124588	-0.14284337
176	0xbe76df65	-0.24108656
177	0xbdb19685	-0.086712874
178	0xbe21571d	-0.15755887
179	0xbd2b3ca7	-0.04180589
180	0x3ded19ae	0.11577164
181	0xbec2ca63	-0.38045034
182	0xbe082bd1	-0.13297965
183	0xbe071079	-0.13189878
184	0x3cbe8080	0.023254633
185	0xbeb788ad	-0.35846463
186	0x3db4da3b	0.08830687
187	0x3d66efd5	0.056381065
188	0xbda4d039	-0.08047528
189	0xbdad366d	-0.084576465
190	0xbe42842c	-0.18995732
191	0xbedc1fe0	-0.4299307
192	0x3e19b091	0.15008761
193	0xbd8951ea	-0.06705077
194	0xbd879ca8	-0.06621677
195	0xbe608e0e	-0.2192919
196	0xbdcc4b18	-0.099752605
197	0xbdbf8bc7	-0.09352832
198	0xbc0bba8d	-0.008528364
199	0xbe00fbf5	-0.12596114
200	0x3ebfe7f8	0.37481666
201	0xbacad2c3	-0.0015474189
202	0xbfb26de0	-1.3939781
203	0xbf16f857	-0.58972687
204	0x3e9c3437	0.30508587
205	0xbdcd6346	-0.100287005
206	0xbe43f417	-0.19136082
207	0xbec8c271	-0.39210847
208	0x3dc0820d	0.09399805
209	0xbe1845dc	-0.14870399
210	0xbc6b828a	-0.014374385
211	0x3c51a2c6	0.012795156
212	0xbddb4518	-0.10706538
213	0xbe1db16b	-0.15399711
214	0xbe3d2506	-0.18471155
215	0xbeedf7af	-0.4647803
216	0xbcf69705	-0.030101309
217	0xbc20b1f6	-0.009808054
218	0x3d883366	0.066504285
219	0xbcad6ca4	-0.021169968
220	0xbdded6d0	-0.10880816
221	0xbe06fd01	-0.13182451
222	0xbe12b06b	-0.1432511
223	0xbe3b43ae	-0.18287537
224	0xbe2cc476	-0.16871819
225	0xbe78a06a	-0.24279943
226	0xbe3748c4	-0.17898852
227	0xbe4c8bf8	-0.19975269
228	0xbd04f4a9	-0.03245989
229	0x3e37c738	0.1794709
230	0xbf8a91d9	-1.0825759
231	0xbe8910df	-0.26770684
232	0x3dd1be9f	0.10241436
233	0xbde033a2	-0.10947348
234	0x3db5bc27	0.08873778
235	0x3e114aca	0.14188686
236	0x3f107746	0.56431997
237	0xbae7fb27	-0.0017698751
238	0xbed42d91	-0.41441014
239	0xbdc536e9	-0.09629614
240	0xbea69aec	-0.3254007
241	0xbe76f344	-0.24116236
242	0xbf525d52	-0.82173645
243	0xbed86796	-0.4226653
244	0xbe09fab9	-0.1347455
245	0xbe77e2c8	-0.24207604
246	0xbd8d04d9	-0.0688569
247	0xbe2fd8a0	-0.1717248
248	0xbd888951	-0.06666816
249	0xbe34bc23	-0.17649893
250	0xbe6b4f68	-0.2297951
251	0xbe13cf0f	-0.14434455
252	0xbd9d7f86	-0.07690339
253	0xbdeca8ac	-0.11555609
254	0xbd798689	-0.06091932
255	0xbe110c99	-0.14164962

out.0.bias f4 [6]
0	0xbd513a27	-0.05108085
1	0xbdd070b5	-0.10177747
2	0xbe23e9f7	-0.1600722
3	0xbd4cc4c5	-0.04999234
4	0xc01cf35b	-2.4523532
5	0xbcec3b30	-0.028836817
